model.pth (torch, 281213 bytes, 6 tensors)

l1.weight f4 [256, 11]
0	0x3e2f035a	0.17091122
1	0xbe9d5f4c	-0.30736768
2	0x3d6353f2	0.05549998
3	0x3d3811dc	0.044938907
4	0xbea1162d	-0.3146223
5	0xbe61e8b8	-0.22061431
6	0x3e70980c	0.23495501
7	0xbe6f5451	-0.23372008
8	0xbe37cf38	-0.17950141
9	0x3e5bba81	0.21457864
10	0xbd8f6f28	-0.07003623
11	0x3f1036df	0.56333727
12	0x3d1334e4	0.035939112
13	0x3e6c575f	0.23080204
14	0x3e9ce6d6	0.30644864
15	0xbe3f4350	-0.18678021
16	0x3dd352a1	0.103184946
17	0x3d8efdb5	0.069819845
18	0xbeb42ca6	-0.35190314
19	0x3eb22962	0.34797198
20	0x3e00010f	0.12500404
21	0xbeb51a04	-0.3537141
22	0xbebab505	-0.36466232
23	0xbebf6649	-0.37382725
24	0x3c32be38	0.0109096095
25	0x3e972e0f	0.29527327
26	0xbe8f3bd1	-0.27975324
27	0xbed8d028	-0.4234631
28	0xbe82a4ad	-0.25516263
29	0xbf17a9f6	-0.59243715
30	0x3c9878a4	0.018612213
31	0x3def5a48	0.11687142
32	0xbddb7a26	-0.10716657
33	0x3e8e1f22	0.27758127
34	0xbe2d7c73	-0.16942005
35	0x3f3ebf99	0.74511105
36	0xbe5014ca	-0.2032043
37	0x3e6f6331	0.23377682
38	0x3e0cc604	0.13747412
39	0xbe12d76f	-0.14339994
40	0xbeb32fe3	-0.34997472
41	0xbdaa4927	-0.08314734
42	0xbec7854f	-0.38968894
43	0xbdd94b4b	-0.10610064
44	0x3ef866d0	0.4851594
45	0x3ec28265	0.37990108
46	0x3e7d8494	0.24757606
47	0xbdd5248a	-0.1040736
48	0xbeaa3011	-0.33239797
49	0xbe1972cd	-0.149852
50	0xbec3b701	-0.38225558
51	0xbeae2305	-0.34011093
52	0x3e0c898b	0.13724343
53	0xbc1801ae	-0.009277744
54	0xbe0cb754	-0.13741809
55	0x3cc82f9f	0.02443677
56	0xbea49271	-0.32142976
57	0xbdfa047c	-0.122078866
58	0x3e77a37f	0.24183463
59	0xbe64c6d1	-0.22341467
60	0x3ebeecfb	0.37290177
61	0xbe94a92b	-0.29035315
62	0xbf2ca090	-0.674325
63	0xbf261dad	-0.6488903
64	0x3cc4c137	0.024017913
65	0xbf2334ca	-0.63752425
66	0xbd0fb460	-0.03508413
67	0x3dd30e04	0.10305408
68	0xbe2e7ea4	-0.17040497
69	0x3db1de20	0.08684945
70	0x3d252740	0.040320635
71	0xbda84344	-0.08215955
72	0xbe266a13	-0.16251402
73	0xbe348a67	-0.17630921
74	0xbe8b6044	-0.27221882
75	0xbe9192d6	-0.2843234
76	0xbe884c9a	-0.26620942
77	0xbeb3f29d	-0.35146037
78	0xbeab9ba7	-0.3351719
79	0x3daaea46	0.08345465
80	0x3e8b080e	0.27154583
81	0x3e2a21d6	0.1661447
82	0x3e9ae2d0	0.3025117
83	0x3e9638b1	0.29340127
84	0xbd06cad3	-0.032908272
85	0xbdfe83ff	-0.1242752
86	0xbe54c688	-0.20778859
87	0xbe8ba7eb	-0.2727655
88	0xbe6ef73c	-0.233365
89	0xbe9c68c5	-0.30548683
90	0x3e7e2a3a	0.24820796
91	0xbdb75713	-0.08952155
92	0xbe5c3050	-0.21502805
93	0xbd97a0cc	-0.074037164
94	0x3ddcffc3	0.1079097
95	0xbe93cc46	-0.28866786
96	0xbd02d3cc	-0.031940266
97	0xbe85ecc7	-0.2615721
98	0xbe15cf4d	-0.1462986
99	0xbe12437b	-0.14283554
100	0x3efdb10f	0.49549147
101	0xbed2eb49	-0.41195133
102	0xbe2d44ca	-0.16920772
103	0xbe1a5a86	-0.15073594
104	0xbe39b0be	-0.18133828
105	0x3dee81ca	0.11645849
106	0xbeb8b4ec	-0.36075532
107	0xbd420807	-0.047370937
108	0xbd06417c	-0.032777295
109	0x3c1cf08c	0.009578835
110	0xbdf62ce0	-0.12020278
111	0x3e12fc9e	0.14354178
112	0xbe1f0e5a	-0.15532818
113	0x3f102d6c	0.5631931
114	0xbe13631f	-0.1439328
115	0xbeb845a0	-0.3599062
116	0x3e8501a3	0.2597781
117	0xbd2e98fe	-0.042626373
118	0x3f0c77dd	0.54870397
119	0xbf1ee5e6	-0.6206955
120	0xbd869bf0	-0.065727115
121	0xbe50c971	-0.20389344
122	0xbe9c2ebb	-0.30504403
123	0xbe0db1d1	-0.13837363
124	0x3e851205	0.2599031
125	0x3ebce78f	0.36895415
126	0xbe99b9db	-0.3002461
127	0xbe978949	-0.29596928
128	0xbeeb6c9f	-0.4598131
129	0xbf254544	-0.64558816
130	0xbdcf1b97	-0.10112684
131	0x3d592e4e	0.053022675
132	0x3c2df2af	0.010616942
133	0x3c5e6af9	0.013575309
134	0xbf218a58	-0.6310172
135	0xbe889401	-0.26675418
136	0x3e2e2a68	0.17008364
137	0xbec3c2e9	-0.38234642
138	0x3e6acb46	0.22929105
139	0xbee4cf8d	-0.446896
140	0x3daa4b39	0.08315129
141	0x3d8a6ec0	0.06759405
142	0xbf312172	-0.6919166
143	0xbce24e8e	-0.027625348
144	0xbe67be5a	-0.22631207
145	0xbeb09e9f	-0.34496018
146	0xbec3b23d	-0.38221923
147	0xbec4a58e	-0.38407558
148	0xbec90a95	-0.39265886
149	0x3d4e8b4e	0.05042582
150	0xbecd8083	-0.4013711
151	0x3e0698cd	0.13144226
152	0xbee0528b	-0.43812975
153	0xbeb0538c	-0.3443874
154	0xbe32be3a	-0.17455378
155	0xbe7c2a5d	-0.24625535
156	0x3c8adb31	0.016950222
157	0xbe846ed1	-0.25865796
158	0xbe9a3e0a	-0.30125457
159	0x3e5a48b7	0.21316801
160	0x3d99a65d	0.075024344
161	0x3da18832	0.07887305
162	0x3d009e81	0.03140116
163	0xbea1810f	-0.31543776
164	0xbe226bc2	-0.15861419
165	0x3d1a9386	0.037738346
166	0xbd978d96	-0.07400052
167	0xbd98bd8a	-0.07458027
168	0xba398efe	-0.00070784974
169	0xbe651cc4	-0.22374254
170	0x3d96e7ed	0.07368455
171	0xbe0dbd5b	-0.13841765
172	0xbd82ce4a	-0.06387003
173	0xbe531b5d	-0.20615907
174	0xbe4b5156	-0.19855246
175	0xbe9a7f33	-0.3017517
176	0xbec8bbe6	-0.39205855
177	0xbe43b380	-0.19111443
178	0xbd7c16ae	-0.061545067
179	0xbe1a4c83	-0.1506825
180	0xbe73a050	-0.23791623
181	0xbe2789e3	-0.16361193
182	0x3e996fc8	0.29968095
183	0xbe657fb2	-0.22411993
184	0xbeaa0274	-0.33204997
185	0xbf0896bf	-0.5335502
186	0xbeefb221	-0.4681559
187	0xbe30a394	-0.172499
188	0xbe848119	-0.25879744
189	0x3e325719	0.17416038
190	0x3cf117ae	0.029430237
191	0x3b681fe2	0.0035419394
192	0x3e33c28a	0.1755468
193	0x3e70be93	0.23510198
194	0xbd7b2368	-0.061313063
195	0x3d313126	0.043259762
196	0x3cb3df3e	0.021957036
197	0xbde8812c	-0.113527626
198	0xbead15cb	-0.3380569
199	0xbe526b71	-0.20548798
200	0xbeddf863	-0.43353567
201	0xbd852e6b	-0.06502994
202	0x3e611dcc	0.21984023
203	0x3d7f5dcc	0.06234531
204	0x3dc94581	0.0982771
205	0xbe9621e9	-0.29322746
206	0xbe9ea3f1	-0.30984452
207	0xbe10ea15	-0.14151795
208	0x3e2e3234	0.17011338
209	0xbd9f2dbd	-0.07772396
210	0xbe9e4838	-0.30914474
211	0x3f196670	0.5992193
212	0xbdd8edc3	-0.105922244
213	0x3dd65d88	0.104670584
214	0x3d81f9e5	0.06346492
215	0x3c60e297	0.013725898
216	0x3dd86e3b	0.105679
217	0x3dc4d7ea	0.09611495
218	0x3dee2fe6	0.1163023
219	0x3e3be9c1	0.18350889
220	0xbe32fcad	-0.174792
221	0x3d3a2e24	0.04545416
222	0xbeb61813	-0.35565242
223	0x3e06d3ed	0.13166781
224	0xbe80d885	-0.2516519
225	0xbdac250b	-0.08405503
226	0x3dfbd09b	0.12295648
227	0xbbe8b9d7	-0.007102232
228	0xbe9ef043	-0.3104268
229	0xbef0d0f2	-0.47034413
230	0xbeec73b2	-0.4618202
231	0x3ef75298	0.48305202
232	0x3ed6438b	0.41848406
233	0x3ec23bc5	0.37936226
234	0xbe4bbe17	-0.19896732
235	0xbf190d66	-0.5978607
236	0xbea37773	-0.3192707
237	0xbeb19d4b	-0.34690318
238	0xbebcafce	-0.36852878
239	0x3daed9a4	0.085376054
240	0xbe27478f	-0.16335891
241	0xbeb4491c	-0.35212028
242	0xbcae369d	-0.021266276
243	0x3e1177bb	0.1420583
244	0xbe5c11ca	-0.21491161
245	0xbe89e35d	-0.26931277
246	0x3eed794a	0.463816
247	0xbf11162a	-0.56674445
248	0x3e628e2a	0.22124544
249	0x3eaabc06	0.33346575
250	0xbe618d67	-0.22026597
251	0xbf185b07	-0.59513897
252	0xbf1a6476	-0.6030954
253	0x3e5413fb	0.20710747
254	0xbe9550bf	-0.29163167
255	0xbeda3dd1	-0.42625287

l1.bias f4 [256]
0	0xbef310ec	-0.47473848
1	0xbea5bbaa	-0.3236974
2	0x3c937e4a	0.018004555
3	0x3e63b1b9	0.22235765
4	0xbed0e04e	-0.4079613
5	0x3e3b913e	0.18317124
6	0xbdb17f0a	-0.08666809
7	0x3f24f8a9	0.64441925
8	0xbec6199e	-0.3869142
9	0xbd27a152	-0.04092533
10	0xbea1578a	-0.315121
11	0x3ddd5f0d	0.10809145
12	0x3e187b20	0.14890718
13	0xbce651da	-0.028115202
14	0xbed35ec6	-0.41283244
15	0xbe2a2b00	-0.16617966
16	0xbdb75186	-0.08951096
17	0xbf053936	-0.5204042
18	0x3eb8313d	0.35975066
19	0xbeb68b3c	-0.35653102
20	0xbe2e3b35	-0.17014773
21	0xbea3cbbe	-0.3199138
22	0xbda2ec9a	-0.079552844
23	0xbd5cb3ec	-0.053882524
24	0x3e4f1753	0.20223741
25	0xbe594b07	-0.21220027
26	0xbe753549	-0.23946108
27	0xbe322f28	-0.17400801
28	0xbe0fd2c6	-0.14045247
29	0xbdbd6eed	-0.09249673
30	0xbe306aeb	-0.17228286
31	0x3e555e3c	0.20836729
32	0xbf1345a9	-0.5752817
33	0x3ed2ee64	0.41197503
34	0xbec22fb4	-0.3792702
35	0xbe0ab84b	-0.13546865
36	0xbe18a751	-0.14907576
37	0xbe98452d	-0.29740277
38	0xbf0c0f7f	-0.54711145
39	0x3e923010	0.28552294
40	0xbd42021b	-0.04736529
41	0xbdc5910c	-0.09646806
42	0x3e5e6235	0.2171715
43	0xbde056be	-0.10954045
44	0xbd3456e5	-0.04402818
45	0xbce952a7	-0.028481795
46	0xbf02ce2b	-0.5109584
47	0xbd9a26ad	-0.07526908
48	0xbd3abc14	-0.04558952
49	0x3e168ea9	0.14702858
50	0x3d13c4da	0.036076404
51	0xbe9c8d40	-0.30576515
52	0xbede8678	-0.43461967
53	0x3ea2010c	0.31641424
54	0xbe6ed3a2	-0.23322919
55	0xbeba8102	-0.3642655
56	0xbe8f6892	-0.28009468
57	0xbd943135	-0.07235948
58	0xbeaa3c10	-0.3324895
59	0x3e4088d6	0.18802199
60	0x3e660943	0.2246447
61	0x3e624dbe	0.22099969
62	0xbec52850	-0.38507318
63	0xbea21934	-0.31659853
64	0xbd9c0cc7	-0.076196246
65	0xbdeac117	-0.1146261
66	0xbee69d56	-0.45041913
67	0xbdecf027	-0.11569243
68	0xbdd3b2bc	-0.10336825
69	0xbdfc6731	-0.1232437
70	0xbbab6c2c	-0.005231401
71	0x3f0c9e71	0.5492926
72	0xbd0b2adb	-0.033976417
73	0xbec273cd	-0.37978974
74	0x3e36357a	0.17793837
75	0x3ce9dcb5	0.028547624
76	0xbc9e733e	-0.019342061
77	0xbe24123b	-0.1602258
78	0x3c891e4a	0.016738076
79	0xbe90c8ae	-0.28278106
80	0xbd0e2f6d	-0.034713197
81	0xbd48e3dc	-0.04904543
82	0xbe5795d7	-0.21053253
83	0x3ec2b483	0.38028345
84	0xbeb70175	-0.357433
85	0xbe64fa4e	-0.22361109
86	0xbee226f5	-0.44170347
87	0xbde02eb5	-0.10946409
88	0xbe1a92d9	-0.1509508
89	0x3e525957	0.20541893
90	0xbeba5438	-0.3639238
91	0xbc68d257	-0.014210305
92	0x3a4059af	0.00073375826
93	0x3f0cc749	0.54991585
94	0xbe2c64fc	-0.16835397
95	0xbd91f9d9	-0.07127733
96	0x3da07b83	0.07836058
97	0xbe877a0e	-0.26460308
98	0x3e0b0b0c	0.13578433
99	0xbe1c6ec3	-0.15276627
100	0x3ec7743b	0.38955864
101	0xbdb8eccb	-0.0902954
102	0xbd781b4e	-0.060572915
103	0xbe961ad8	-0.29317355
104	0xbc599ffa	-0.01328277
105	0xbcf5e25d	-0.030015165
106	0x3e5a955c	0.21346039
107	0xbe30c826	-0.1726385
108	0xbe8fce73	-0.28087196
109	0xbe722919	-0.2364849
110	0xbe994973	-0.2993885
111	0x3d864400	0.06555939
112	0xbea96576	-0.3308522
113	0xbd354e20	-0.04426396
114	0xbdf47f5e	-0.11938356
115	0xbed96960	-0.42463207
116	0xbde8cb82	-0.11366941
117	0xbe42cf3d	-0.19024368
118	0x3d7e81b2	0.062135406
119	0xbed1b9de	-0.40962118
120	0xbe41cf80	-0.18926811
121	0xbdc130d0	-0.09433138
122	0xbe8743f7	-0.2641904
123	0xbe0c4fba	-0.13702288
124	0x3d8c9866	0.06865005
125	0xbe62f763	-0.22164683
126	0xbe6c5564	-0.23079449
127	0xbdb624aa	-0.08893712
128	0xbe39a8cd	-0.18130799
129	0xbea5f436	-0.3241288
130	0xbd37bf1e	-0.044859998
131	0xbdfda002	-0.12384035
132	0xbe930a0d	-0.28718606
133	0xbeb5b468	-0.35489202
134	0xbe1ea77f	-0.15493582
135	0xbe2d295e	-0.16910312
136	0xbe2fe039	-0.17175378
137	0xbed50d63	-0.41611776
138	0x3e61936a	0.2202889
139	0xbde8fdd3	-0.11376538
140	0xbef6b802	-0.48187262
141	0x3d7f18a2	0.06227935
142	0x3e4a9d5b	0.19786589
143	0xbd380511	-0.044926707
144	0xbc3299ca	-0.010900924
145	0xbdecd74e	-0.115645036
146	0xbcef35e0	-0.029200494
147	0xbead310c	-0.33826482
148	0xbe20536a	-0.1565682
149	0xbe98c546	-0.29838008
150	0x3bcbe96e	0.0062228953
151	0xbdb76944	-0.08955625
152	0xbe099d44	-0.13438898
153	0xbe029a7e	-0.12754247
154	0xbe9682f9	-0.293968
155	0xbe469db9	-0.19396104
156	0xbed0b138	-0.40760207
157	0xbe7e6543	-0.24843316
158	0x3c9823ca	0.018571753
159	0xbc18a535	-0.009316732
160	0xbeb79010	-0.35852098
161	0xbebda7b6	-0.37042016
162	0xbeaae09f	-0.33374497
163	0xbe3e89fa	-0.18607321
164	0xbef540e7	-0.4790108
165	0xbd99c982	-0.07509138
166	0xbc4137d7	-0.011793098
167	0xbe6178c9	-0.22018732
168	0xbe29328c	-0.16523188
169	0xbe86adb8	-0.26304412
170	0xbcbc4c0a	-0.022985477
171	0x3d63546e	0.05550044
172	0x3e8a9c16	0.2707221
173	0xbd8e1b29	-0.06938774
174	0xbdb25f0d	-0.08709536
175	0xbe0b2ace	-0.13590547
176	0xbd0ddcdf	-0.034634467
177	0x3e4391d1	0.19098593
178	0xbe9f205c	-0.31079376
179	0x3c00457f	0.007829069
180	0xbce5593b	-0.02799665
181	0x3f047945	0.5174754
182	0x3d1554a1	0.03645766
183	0xbd7223fc	-0.05911635
184	0xbebd6866	-0.36993712
185	0xbeb834ce	-0.35977787
186	0xbdc30b8e	-0.09523688
187	0x3e5cefff	0.21575926
188	0xbe920b7b	-0.28524384
189	0x3dff739c	0.124732226
190	0xbd854a5c	-0.065083236
191	0xbe4f7367	-0.20258866
192	0xbd8b95a0	-0.06815648
193	0x3e822724	0.25420487
194	0xbf13f959	-0.5780235
195	0x3d7ed336	0.062213145
196	0x3d11ec57	0.035625782
197	0xbeae4433	-0.34036407
198	0xbec24219	-0.37941054
199	0x3f2ce194	0.67531705
200	0xbe99395e	-0.2992658
201	0xbee02e06	-0.43785113
202	0xbe8e1ef5	-0.27757993
203	0xbe0975a0	-0.13423777
204	0xbecd81d0	-0.40138102
205	0xbe720ca6	-0.23637637
206	0xbeacc684	-0.33745205
207	0xbea3c872	-0.31988865
208	0xbe833fce	-0.25634617
209	0x3e5f41d1	0.2180245
210	0x3d9aa038	0.075500906
211	0x3ee1e4bd	0.44119826
212	0xbdcb9504	-0.09940532
213	0xbe869b93	-0.2629057
214	0xbd7b9536	-0.061421596
215	0xbe3712a9	-0.17878212
216	0xbede845a	-0.4346035
217	0xbed8268f	-0.42216918
218	0xbdc15a78	-0.09441084
219	0xbebf9bcb	-0.37423548
220	0x3ddcea81	0.107869156
221	0x3d6ea05d	0.058258403
222	0xbe9f5f5b	-0.31127438
223	0xbaef1356	-0.0018240015
224	0xbe078b34	-0.13236696
225	0xbea9a937	-0.33136913
226	0x3d0cdb85	0.034389038
227	0xbe237812	-0.15963772
228	0xbe0d094c	-0.13773078
229	0x3e134df9	0.14385213
230	0xbea271c3	-0.31727418
231	0xbe7c0293	-0.24610357
232	0x3ea9f0b2	0.33191448
233	0xbe45a2a8	-0.1930033
234	0xbe9bfc9a	-0.30466157
235	0x3d9eeebc	0.07760379
236	0xbeb112a9	-0.3458455
237	0x39a54817	0.00031524964
238	0xbea93794	-0.33050215
239	0xbe79087f	-0.24319647
240	0xbe8c1135	-0.27356878
241	0xbd058e74	-0.032606557
242	0xbe8e3b04	-0.277794
243	0xbeeef141	-0.46668437
244	0xbd8c9c2a	-0.068657234
245	0xbe879965	-0.26484218
246	0x3e4ca9df	0.19986676
247	0xbdd26b86	-0.10274415
248	0xbd4cbd21	-0.049985055
249	0x3e5f693d	0.21817489
250	0x3d981621	0.07426096
251	0x3dead742	0.114668384
252	0xbec2361a	-0.379319
253	0xbde0d597	-0.10978239
254	0xbe408c95	-0.18803628
255	0x3d196682	0.037451275

l2.weight f4 [256, 256]
0	0xbd634e1d	-0.055494417
1	0xbd147621	-0.03624547
2	0xbcc66124	-0.024216242
3	0x3c908d98	0.017645642
4	0xbd82efe9	-0.063934155
5	0xbd486e1d	-0.048933137
6	0x3bd162b0	0.0063899383
7	0xbcbac993	-0.022801196
8	0x3d047b66	0.032344244
9	0xbc0360dc	-0.008018699
10	0x3d1345bc	0.035955176
11	0x3cfca3d1	0.030839832
12	0xbd7011fb	-0.058610898
13	0xbd355d36	-0.044278346
14	0x3c329230	0.010899112
15	0xbccb60d6	-0.024826448
16	0xbd03e0e1	-0.032196883
17	0xbca95feb	-0.02067562
18	0x3c9b16a4	0.018931694
19	0xbd497642	-0.049185045
20	0xbcbae313	-0.022813356
21	0x3b50c293	0.0031854257
22	0xbcc80b0f	-0.024419336
23	0xbd940513	-0.0722753
24	0x3d143751	0.036185566
25	0xbc6f3c58	-0.014601789
26	0x3c89ccab	0.016821226
27	0xbd880d81	-0.06643201
28	0x3b6153a6	0.0034382134
29	0x3d2851fb	0.041093808
30	0x3c59870a	0.013276825
31	0x3d31aa3a	0.04337523
32	0x3c8d75b0	0.017268032
33	0xbda43873	-0.08018579
34	0x3c95ecbc	0.01830136
35	0x3c46a858	0.012125097
36	0xbc8c25b0	-0.017107815
37	0xbcda7e2e	-0.026671495
38	0xbba44f5c	-0.005014343
39	0x3cba31c2	0.022728804
40	0xbd709817	-0.058738794
41	0xbd88aad8	-0.06673211
42	0xbc59320f	-0.013256564
43	0x3b966a2b	0.004590293
44	0xbd0a1bab	-0.033717792
45	0x3c293e52	0.0103298
46	0xbd2dade5	-0.042402167
47	0xb9d5efc0	-0.00040805154
48	0xbd0966ab	-0.033545177
49	0xbd4a456d	-0.049382616
50	0x3cfe79fd	0.031064028
51	0xbd97dfa4	-0.07415703
52	0x3c340155	0.010986646
53	0xbd907673	-0.070538424
54	0xbd522cbc	-0.051312193
55	0x3c15fd5b	0.009154643
56	0xbc6ae1d9	-0.014336073
57	0x3d4cd8c6	0.05001142
58	0x3ba5bdf5	0.005058045
59	0x3cfc7010	0.030815154
60	0xbd830038	-0.06396526
61	0xbc9afe3e	-0.01892006
62	0xbd48ba3d	-0.049005736
63	0x3c9fe826	0.019519877
64	0x3d714ad0	0.058909237
65	0xbd57efb7	-0.052718844
66	0x3c50427d	0.012711165
67	0xbd7c5e84	-0.061613575
68	0x3c1ae6b8	0.009454422
69	0x3cf2e274	0.029648997
70	0x3cd35529	0.025797443
71	0xbc938610	-0.018008262
72	0xbd4abb5a	-0.04949508
73	0x3d2e4b7c	0.042552456
74	0x3cc4cad6	0.024022501
75	0xbcf87b2c	-0.03033217
76	0xbccdeb2c	-0.025136553
77	0xbd810fd0	-0.06301844
78	0x3ca4e04e	0.020126488
79	0xbd3242a1	-0.043520574
80	0xbc5f0be6	-0.013613677
81	0x3c9d0386	0.01916672
82	0xbccfc5d8	-0.025362894
83	0xbcc43308	-0.023950115
84	0xbbd1d29b	-0.00640328
85	0x3d00df33	0.03146286
86	0xba2fc250	-0.0006704675
87	0xbd612b50	-0.054972947
88	0x3c655a58	0.01399859
89	0xbd586ef1	-0.052840177
90	0xbd8c2151	-0.06842292
91	0x3c94bf2f	0.01815757
92	0xbd18ca60	-0.037302375
93	0xbd6d0463	-0.05786551
94	0x3d0078ae	0.03136509
95	0xbb99cffa	-0.004693982
96	0xbc98b477	-0.01864074
97	0x3ba6c9b9	0.005089965
98	0xbc4a648a	-0.012353072
99	0x3bb23524	0.0054384638
100	0xbd8995cc	-0.067180246
101	0xbdb96677	-0.09052747
102	0xbd387bd4	-0.045039967
103	0xbc979e48	-0.018508092
104	0xbd5a12db	-0.05324064
105	0x3d11a64f	0.035558995
106	0xbda020b0	-0.07818735
107	0x3d1d9adb	0.03847776
108	0xbd48d208	-0.049028426
109	0xbd54fab8	-0.051996917
110	0xbcac8971	-0.02106163
111	0xbd284be3	-0.041087996
112	0x3cb79952	0.022411976
113	0xbca4bb2b	-0.02010878
114	0xbd9edcc2	-0.0775695
115	0xbc083e83	-0.008315685
116	0xbd5bc570	-0.053655088
117	0xbd981319	-0.074255176
118	0xbc7474c0	-0.0149204135
119	0xbd115875	-0.03548475
120	0xbc9e4564	-0.019320197
121	0xbd18ac1c	-0.03727351
122	0x3cc29d30	0.023756593
123	0xbd2265ce	-0.03964787
124	0xbd158ed9	-0.036513183
125	0xbcf7c3a7	-0.030244661
126	0x3b87a30d	0.00413931
127	0xbcb5cc38	-0.022192106
128	0xbd7c3a5a	-0.061579086
129	0xbbc5b066	-0.006032991
130	0xbc789131	-0.015171335
131	0x3b583e20	0.0032996014
132	0x3cc3f84d	0.02392211
133	0xbd65be60	-0.05608976
134	0x3ce04989	0.027378814
135	0x3d72bb02	0.059260376
136	0xbd93e047	-0.07220512
137	0x3c9c61d9	0.019089626
138	0xbd892e4b	-0.06698283
139	0xbc4d2ff6	-0.012523642
140	0x3cd11b8d	0.025525833
141	0x3c9b6545	0.018969188
142	0xbda25849	-0.07926995
143	0x3d044019	0.03228769
144	0xbce916a0	-0.028453171
145	0x3bc114de	0.00589238
146	0xbdb845e4	-0.089977056
147	0x3b902f30	0.0044001564
148	0xbd9077db	-0.070541106
149	0x3d094724	0.03351511
150	0xbd605846	-0.054771684
151	0xbd0bf715	-0.034171183
152	0xbc0a0778	-0.008424632
153	0xbd63451a	-0.055485822
154	0xbcfd4bed	-0.030919993
155	0xbd31eb8f	-0.043437537
156	0xbd4e5a4c	-0.050379083
157	0x3d614cf8	0.055005044
158	0x3d44d63c	0.048055872
159	0xbd84c909	-0.06483657
160	0xbd234280	-0.03985834
161	0x3b38b5b5	0.0028184478
162	0xbd375fde	-0.04476916
163	0x3cb20378	0.02173017
164	0xbd1ebaff	-0.038752552
165	0xbd838527	-0.06421881
166	0x3cb24f32	0.021766279
167	0xbd5cc8ef	-0.053902563
168	0xbcabb8fb	-0.020962229
169	0xbc5b9c7e	-0.01340401
170	0x3d293ec6	0.04131963
171	0x3c5e13eb	0.0135545535
172	0x3d082652	0.03323967
173	0x3d0dc2f2	0.034609742
174	0x3a3ec5a7	0.00072773773
175	0xbd6c8131	-0.057740394
176	0xbce49952	-0.02790514
177	0xbceb4aa3	-0.028722113
178	0xbba9f2d4	-0.005186418
179	0xbb9677cb	-0.004591917
180	0xbc557f49	-0.013030835
181	0xbc43b960	-0.011946052
182	0xbc060bc1	-0.008181513
183	0xbc4b0dc0	-0.012393415
184	0x3d109d00	0.035305977
185	0xbce82013	-0.028335607
186	0xbd1b8976	-0.03797289
187	0xbbaee33b	-0.0053371466
188	0xbc7a39f2	-0.015272604
189	0xbd5304a9	-0.051518116
190	0xbd79336a	-0.060840048
191	0x3d3026a5	0.043005604
192	0xbab19832	-0.0013549386
193	0x3cca0d23	0.024664467
194	0xbd654dac	-0.055982277
195	0xbd2bdebe	-0.04196047
196	0xbd08c73e	-0.033393137
197	0xbcd35078	-0.025795206
198	0x3abea7b6	0.0014545831
199	0xbb8bd482	-0.0042672763
200	0x3bf05abc	0.007335035
201	0x3c263c20	0.010146171
202	0xbd6959ce	-0.05697041
203	0xbd9da3f0	-0.07697284
204	0xbd70256f	-0.05862945
205	0x3c5d35d3	0.013501602
206	0x3d0ad8a1	0.033898
207	0xbd68141e	-0.05665981
208	0xbcc4479b	-0.023959925
209	0xbd140d43	-0.03614546
210	0xbc4a5a2e	-0.012350602
211	0x3d23d205	0.039995212
212	0x3ce6e48f	0.028185157
213	0x3d6f3f22	0.058409818
214	0xbcb260f9	-0.021774756
215	0xbd57a200	-0.05264473
216	0x3cbc661f	0.022997914
217	0x3bf7d944	0.007563742
218	0x3ca3ba18	0.019986197
219	0x3ca6fbbb	0.020383706
220	0x3d4ef6a7	0.050528195
221	0x3c1ca326	0.009560382
222	0x3d118941	0.035531286
223	0x3b445e9c	0.0029963618
224	0xbb895785	-0.0041913413
225	0xbdbe2c7a	-0.09285827
226	0x3b91febe	0.0044554165
227	0xbc397956	-0.011320433
228	0xbca743fb	-0.020418158
229	0xbb2f27c2	-0.0026726578
230	0x3cc162fc	0.02360677
231	0x3c8d420c	0.017243408
232	0x3ca63290	0.020287782
233	0x3cbc0bac	0.022954784
234	0xbdaa8a57	-0.083271675
235	0xbd7879a3	-0.060662877
236	0xbd944c74	-0.07241145
237	0x3d4cbb08	0.049983054
238	0x3b280560	0.002563797
239	0x3d58e2e4	0.052950755
240	0x3d32abd1	0.04362089
241	0xbcc39f13	-0.023879563
242	0xbbde3b1a	-0.006781948
243	0xbd0ef84f	-0.034904774
244	0xbd6e1972	-0.058129735
245	0xbda0feba	-0.07861085
246	0xbc4ebd01	-0.012618304
247	0xbd788df6	-0.06068226
248	0x3d4c53f9	0.04988477
249	0xbd6378fb	-0.055535298
250	0xbcd1a363	-0.025590604
251	0x3c957f1c	0.018249087
252	0xbd4782d7	-0.048708763
253	0x3d295b20	0.04134667
254	0xbd4b6d3a	-0.049664713
255	0x3cb8de7f	0.022567032

l2.bias f4 [256]
0	0xbd33eb02	-0.043925293
1	0x3ea38587	0.3193781
2	0xbd9ccac1	-0.0765586
3	0xbdc18eea	-0.09451087
4	0xbd863252	-0.065525666
5	0xbd782e35	-0.06059094
6	0xbd817056	-0.063202545
7	0xbd3beca1	-0.045879964
8	0xbd60d848	-0.054893762
9	0x3db1b5f3	0.08677282
10	0xbda843fc	-0.08216092
11	0xbd0d5cad	-0.03451221
12	0xbd9dcae9	-0.07704718
13	0xbe34da64	-0.17661434
14	0xbc8083ad	-0.015687788
15	0x3eb6cd20	0.35703373
16	0xbdc5830d	-0.096441366
17	0xbc4b310c	-0.01240183
18	0xbc769337	-0.015049747
19	0x3e932652	0.28740174
20	0xbd655687	-0.055990722
21	0xbd707a7f	-0.05871057
22	0xbde3dd52	-0.11126198
23	0xbcc6ef7c	-0.024284117
24	0xbe30c565	-0.172628
25	0xbc235766	-0.009969568
26	0x3ecc5ad2	0.3991304
27	0x3e3d73fd	0.18501277
28	0xba54fa00	-0.0008124411
29	0xbc876b5c	-0.016530685
30	0xbd143a50	-0.036188424
31	0x3e3107e1	0.17288162
32	0xbd0a1385	-0.03371002
33	0xbdd31894	-0.10307422
34	0xbe3dfbca	-0.18553081
35	0xbd4b2c4b	-0.049602788
36	0xbde17211	-0.110080846
37	0x3bf1b234	0.00737598
38	0xbd60b3fd	-0.05485915
39	0x3dda832a	0.10669549
40	0xbd23c15b	-0.03997932
41	0xbdca4f29	-0.0987838
42	0xbd27da3f	-0.04097962
43	0xbcee2457	-0.029070063
44	0xbd6066b6	-0.054785453
45	0xbd73eb07	-0.05955031
46	0xbd6c2533	-0.057652663
47	0x3cfe85e6	0.031069707
48	0xbe3722ca	-0.17884365
49	0x3c870816	0.016483348
50	0xbd66c9b4	-0.056344703
51	0xbd6a88f4	-0.057259515
52	0xbe0c4ab2	-0.13700369
53	0xbc7427d0	-0.01490207
54	0xbc454626	-0.0120406505
55	0x3cbc4b63	0.022985166
56	0x3e5fdee7	0.21862374
57	0x3ef77c5b	0.48337063
58	0xbd51e72b	-0.05124585
59	0xbdd8a027	-0.10577422
60	0x3e505eb1	0.20348622
61	0x3c94e6c0	0.018176436
62	0xbe6b10b9	-0.22955598
63	0xbd91bd1f	-0.0711615
64	0xbe36e766	-0.17861709
65	0xbdaad930	-0.083422065
66	0xbcf0d1fa	-0.029397
67	0xbde25c9e	-0.110528216
68	0xbdf513bc	-0.11966655
69	0xbe38a5bb	-0.18031971
70	0xbc9165eb	-0.017748794
71	0xbd5e31f7	-0.05424687
72	0x3e3a0b09	0.18168272
73	0xbd25fe98	-0.040526003
74	0xbd14e471	-0.03635067
75	0xbe2fffdf	-0.17187451
76	0x3caffea5	0.021483729
77	0xbe3a6ead	-0.18206282
78	0xbce905db	-0.028445175
79	0xbd85ae94	-0.06527439
80	0xbd0a1da9	-0.033719692
81	0x3c5f28f0	0.0136206
82	0xbd75ae7a	-0.059980847
83	0x3e0bf197	0.13666378
84	0xbd84dec3	-0.06487801
85	0xbdb17998	-0.0866577
86	0xbc06a18e	-0.008217229
87	0xbc61e211	-0.013786809
88	0xbd82786c	-0.06370625
89	0xbdb3b8eb	-0.08775505
90	0x3d2da9e4	0.04239835
91	0xbd2f239d	-0.042758573
92	0xbe1fe041	-0.1561289
93	0x3ed1c0dd	0.40967456
94	0x3db0a467	0.08625107
95	0x3dce26f0	0.100660205
96	0xbd410c55	-0.0471309
97	0xbd848906	-0.06471448
98	0x3e9e2e0d	0.3089451
99	0x3d84aeb5	0.06478635
100	0xbd7899b5	-0.06069346
101	0xbd0776fa	-0.03307245
102	0x3e91ef28	0.28502774
103	0x3d0980a5	0.03356995
104	0xbd566f31	-0.052352134
105	0x3ebabefc	0.36473835
106	0x3bfe2a0f	0.0077564786
107	0xbd691af2	-0.056910463
108	0xbccf8bc8	-0.025335208
109	0xbde0e22b	-0.10980638
110	0xbe017958	-0.12643945
111	0xbea57bf0	-0.3232112
112	0xbe5b3030	-0.21405101
113	0xbdb0c0e6	-0.086305425
114	0xbd962aca	-0.0733238
115	0xbd430682	-0.04761363
116	0xbdb875ec	-0.09006867
117	0xbd0f918d	-0.035050917
118	0x3f0c5fb6	0.54833543
119	0xbe0a0c23	-0.13481192
120	0xbe629c59	-0.22129954
121	0x3ec6d9c5	0.3883802
122	0xbde9c130	-0.11413801
123	0x3ba1d894	0.004939148
124	0xbcac9dd8	-0.02107136
125	0x3ee05631	0.4381576
126	0x3ef04241	0.46925548
127	0xbdd3caec	-0.10341439
128	0xbb7c21f4	-0.0038472386
129	0xbd26db16	-0.04073628
130	0xbc069e7b	-0.008216496
131	0xbd8d4e25	-0.068996705
132	0xbd4cc994	-0.049996927
133	0x3d195bec	0.03744118
134	0xbd1a4080	-0.03765917
135	0xbd82ecbb	-0.06392809
136	0x3f0be29d	0.5464266
137	0xbda67750	-0.08128226
138	0xbcde2b94	-0.027120389
139	0xbd6af9e7	-0.05736723
140	0xbe32a234	-0.17444688
141	0xbccfb88f	-0.02535656
142	0x3c2a2840	0.010385573
143	0xbd8a74b8	-0.067605436
144	0xbd9f29f2	-0.07771672
145	0xbdc7e788	-0.09760958
146	0xbdb36703	-0.08759882
147	0x3f27728c	0.6540916
148	0xbdaa0435	-0.08301584
149	0xbd9e8008	-0.07739264
150	0xbca75bf6	-0.020429593
151	0xbdba0c93	-0.090844296
152	0xbe070355	-0.13184865
153	0x3ca349df	0.019932685
154	0xbd954ac4	-0.07289651
155	0x3eadfe81	0.33983234
156	0x3eb552b0	0.35414648
157	0x3cda6bae	0.026662674
158	0xbdb7f84c	-0.08982906
159	0x3c2d2b5c	0.01056942
160	0xbbecff26	-0.0072325645
161	0x3c8fcd9c	0.017554097
162	0xbc22974c	-0.009923767
163	0x3f1572c4	0.58378243
164	0xbda86fb8	-0.08224434
165	0xbd3fb70e	-0.046805434
166	0xbde0c9de	-0.10976003
167	0xbe1058f7	-0.14096437
168	0xbe1c8fc0	-0.15289211
169	0x3e36e775	0.17861731
170	0x3c99323c	0.018700711
171	0x3f2a0e2f	0.6642789
172	0xbc9d29ea	-0.019185025
173	0xbd5d1e76	-0.053984128
174	0xbdd2b0fb	-0.102876626
175	0x3dfbff00	0.12304497
176	0xbe49c890	-0.19705415
177	0xbd0ac192	-0.03387601
178	0xbd02ce87	-0.03193524
179	0x3e289e85	0.1646672
180	0x3f007af5	0.5018762
181	0x3e56efaa	0.20989862
182	0xbda0a722	-0.07844378
183	0xbdb96de4	-0.09054163
184	0xbdddf70e	-0.108381376
185	0xbd33c33f	-0.043887373
186	0xbd30fdbc	-0.04321073
187	0xbd976a9d	-0.07393382
188	0xbdc4b352	-0.09604515
189	0xbcf7085e	-0.030155357
190	0xbe216d6d	-0.15764399
191	0x3e57fac6	0.21091756
192	0x3e60435f	0.219007
193	0xbe248aa6	-0.16068515
194	0xbcd7c6a4	-0.026339836
195	0x3eb4a1ca	0.35279685
196	0xbd8ee514	-0.06977287
197	0x3e8a7c1f	0.27047822
198	0x3dcb0443	0.09912922
199	0xbd785e2f	-0.060636695
200	0xbe4df632	-0.20113447
201	0xbdf1479b	-0.11781236
202	0x3e9b9583	0.30387506
203	0xbe477bc0	-0.194808
204	0xbdb4b65d	-0.088238455
205	0xbe7d8dbe	-0.24761102
206	0xbda1b22c	-0.07895312
207	0xbd973d84	-0.0738478
208	0x3c39c768	0.011339046
209	0x3e70c26d	0.23511668
210	0xbda61255	-0.08108965
211	0x3eaa2c39	0.33236864
212	0xbdbfb2cf	-0.09360277
213	0x3eb1911c	0.34681022
214	0xbd719b22	-0.058985837
215	0xbdbd48a7	-0.09242373
216	0xbd980dfe	-0.07424544
217	0xbe163aa2	-0.14670804
218	0x3ea638f0	0.32465315
219	0x3d568143	0.052369367
220	0xbc3198c4	-0.010839645
221	0xbb5f4099	-0.0034065603
222	0xbd5f9607	-0.054586437
223	0xbe156bb4	-0.14591867
224	0xbd8c4a97	-0.068501644
225	0xbe89a0d8	-0.26880527
226	0x3f1e0a55	0.61734515
227	0xbdabd2ad	-0.083897926
228	0xbdc06807	-0.09394842
229	0xbcd87bd6	-0.026426237
230	0xbd9fd1db	-0.07803699
231	0xbc7eff4e	-0.015563799
232	0x3dd30f9d	0.10305712
233	0x3e5cb102	0.21551898
234	0xbda6c4b8	-0.0814299
235	0x3eb1793d	0.3466281
236	0xbd43e03f	-0.04782128
237	0x3f15e7d1	0.5855685
238	0x3eeb1c59	0.45920065
239	0xbd2ad437	-0.04170629
240	0xbd20c06f	-0.03924602
241	0xbe1117bc	-0.1416921
242	0xbda560d9	-0.08075113
243	0x3d111982	0.035424717
244	0xbe4e26da	-0.20132008
245	0x3b074ce6	0.00206452
246	0xbc73cff0	-0.014881119
247	0xbdbdc640	-0.09266329
248	0xbdb0e07d	-0.08636568
249	0xbd5a71a2	-0.053331025
250	0xbda77f18	-0.08178538
251	0x3e2f0d8c	0.17095011
252	0x3e1b5843	0.15170388
253	0xbc342d99	-0.010997199
254	0xbda840c8	-0.08215481
255	0xbec6b961	-0.38813308

l3.weight f4 [3, 256]
0	0xbd31d184	-0.0434127
1	0xbf312888	-0.6920247
2	0x3dfdfcd4	0.12401739
3	0x3d09d4d0	0.03365022
4	0x3a573380	0.0008209273
5	0x3c3c5a3b	0.011496122
6	0x3cdcf15d	0.02697056
7	0xbd0d5482	-0.03450442
8	0xbb90fa60	-0.0044243783
9	0xbf29bfac	-0.66308093
10	0x3c866955	0.016407648
11	0xbda4974d	-0.08036671
12	0x3d522e29	0.051313553
13	0xbd940d31	-0.072290786
14	0x3a1037d5	0.00055014837
15	0xbf18fffe	-0.59765613
16	0x3ca70874	0.020389773
17	0xbe56d13c	-0.20978254
18	0xbdeebe97	-0.11657446
19	0xbeadd75a	-0.33953363
20	0x3b47d993	0.0030494675
21	0xbb5c38d8	-0.0033603217
22	0xbcc4d5b8	-0.02402769
23	0xbc089fa9	-0.008338847
24	0xbb85a221	-0.004078165
25	0xb9ca1d2f	-0.00038550186
26	0xbed0e8c1	-0.40802577
27	0xbc1a423c	-0.009415206
28	0xb9fb204d	-0.00047898517
29	0xbe5c6307	-0.21522151
30	0x3c8e4f84	0.0173719
31	0xbee261dc	-0.44215286
32	0x3d0b8475	0.034061868
33	0x3cc1e153	0.023667013
34	0xbe7d89cd	-0.24759598
35	0x3c1d4568	0.009599067
36	0xbc305f72	-0.010764943
37	0xbbc4cf06	-0.0060061244
38	0xbe9ddc84	-0.30832303
39	0x3c9f7edd	0.019469673
40	0xbd1e15bc	-0.038594946
41	0xbc361871	-0.011114226
42	0xbc3dd1f2	-0.011585699
43	0xbbc0262b	-0.005863925
44	0x3c7a935f	0.015293925
45	0xbb9f91f0	-0.004869692
46	0xbcbad46d	-0.02280637
47	0x3d2e374c	0.042533204
48	0xbe35edb1	-0.17766453
49	0xbd542a57	-0.05179819
50	0x3d92fb3d	0.07176826
51	0x3c61ea20	0.01378873
52	0xbc86ecb5	-0.016470293
53	0xbc4abc39	-0.012373977
54	0xbc626907	-0.013818986
55	0xbbd3541e	-0.0064492365
56	0x3e2eb338	0.17060554
57	0x3da863cc	0.0822216
58	0x3b54cc30	0.0032470338
59	0xbd70fc39	-0.05883429
60	0x3e0a7153	0.13519792
61	0x3cb0ab96	0.021566194
62	0xbebfd946	-0.37470454
63	0xbc43d218	-0.011951946
64	0x3ce39f96	0.027786057
65	0x3c84fb0d	0.016232992
66	0x3d023d4f	0.03179675
67	0xbe0a60fb	-0.13513558
68	0x3c7f0df4	0.0155672915
69	0xbe51ab17	-0.20475422
70	0xbb06b915	-0.0020557095
71	0xb8aa162c	-8.1103615e-05
72	0x3dda7313	0.1066648
73	0x3c6ce21e	0.014458207
74	0xbc48ab90	-0.012247935
75	0x3c0d947c	0.008641358
76	0xbceb42e6	-0.028718423
77	0x3c850727	0.016238762
78	0xbc1deb13	-0.009638566
79	0x3c26ca69	0.010180094
80	0x3cc85d9f	0.024458705
81	0xbb60a917	-0.0034280473
82	0xbb93e263	-0.0045130714
83	0x3d51e8ec	0.051247522
84	0xbc89ed94	-0.016836919
85	0x3cfbbd70	0.03072998
86	0xbcc4c78d	-0.024020934
87	0x3d869baa	0.06572659
88	0x3cd31e48	0.025771275
89	0xbd03f27f	-0.032213684
90	0xbca15811	-0.019695314
91	0xbcccef7d	-0.02501654
92	0xbdd3c127	-0.10339575
93	0xbf313085	-0.6921466
94	0x3d61619a	0.05502472
95	0x3da1f9a4	0.07908943
96	0x3d329be1	0.04360569
97	0xba72977c	-0.00092541403
98	0x3e0c823d	0.13721557
99	0xbbc5a656	-0.0060317917
100	0xbc9e2660	-0.019305408
101	0xbaf6bdfa	-0.0018824928
102	0x3e132725	0.14370401
103	0xbeb778e5	-0.35834423
104	0x3d8b5cfd	0.068048455
105	0xbf191a16	-0.5980543
106	0x3cab9905	0.020946989
107	0xbbfb837c	-0.0076755863
108	0xbcaa1261	-0.020760717
109	0xbb654386	-0.0034982874
110	0x3c637d03	0.013884786
111	0xbeb939aa	-0.36176807
112	0xbcdf9f1a	-0.027297545
113	0xbb4f149a	-0.0031597973
114	0x3ce09ddf	0.027419029
115	0xbbae7ac5	-0.005324694
116	0xbc819a43	-0.015820628
117	0xbac96907	-0.0015366384
118	0x3eaa8ab0	0.33308935
119	0xbd23e534	-0.040013507
120	0xbb8eb816	-0.004355441
121	0x3dcb0438	0.09912914
122	0x3c2c4c33	0.010516214
123	0xbcd72243	-0.026261454
124	0x3d084b48	0.03327492
125	0x3e75446f	0.23951887
126	0x3e17b97b	0.14816849
127	0xbc40d427	-0.011769331
128	0x3c4af1ba	0.012386734
129	0x3b3d08da	0.0028844387
130	0xbd3cbf11	-0.046080653
131	0xbc326f7c	-0.010890838
132	0x3ce459de	0.027874883
133	0x3cd2f7ac	0.025752865
134	0xbe82e4f0	-0.2556529
135	0x3c1d90fd	0.009617087
136	0x3e3e4cc8	0.18583977
137	0xbd58437d	-0.052798737
138	0xbc97815b	-0.018494299
139	0xbcc24413	-0.023714101
140	0xbe21fed4	-0.15819865
141	0x3b48ca5d	0.0030638196
142	0x3b13b20a	0.002253654
143	0x3d181ac5	0.037134904
144	0xbd0d5434	-0.03450413
145	0x3d7cce92	0.06172044
146	0xbeb441bb	-0.35206398
147	0x3e62c1c8	0.22144234
148	0xbe2f7cd9	-0.1713747
149	0x3ca5e97c	0.020252936
150	0xbcfa343b	-0.030542484
151	0x3c9c37af	0.01906952
152	0x3d419d03	0.04726888
153	0x3c001105	0.007816558
154	0xbc9ef1c1	-0.019402387
155	0x3dc26a92	0.09492983
156	0xbbb2e4fb	-0.0054594255
157	0xbe975c32	-0.29562527
158	0x3ce58758	0.028018638
159	0xbc459113	-0.012058514
160	0xbcdeb799	-0.027187156
161	0xbd864a0c	-0.06557092
162	0x3d1c9124	0.038224354
163	0x3e66ab65	0.2252632
164	0xbc026498	-0.007958554
165	0x3d95df03	0.07317927
166	0xbcee2fdc	-0.029075556
167	0xbc4ae2e4	-0.0123831965
168	0xbd3e3445	-0.046436567
169	0x3e1b664d	0.15175743
170	0xbd4717f4	-0.048606828
171	0x3e8e9a6a	0.27852184
172	0x3d2d40f3	0.04229827
173	0xbc5b37a3	-0.013379964
174	0xbc3fa399	-0.01169672
175	0xbea215b6	-0.3165719
176	0xbdfb2236	-0.122623846
177	0xbb2f32a9	-0.0026733077
178	0x3c97045c	0.018434696
179	0x3d8033b3	0.06259861
180	0x3e0ac13c	0.13550276
181	0x3dbf8ee0	0.09353423
182	0x37927856	1.7460592e-05
183	0xbc51b419	-0.012799286
184	0xbd9d1624	-0.076702386
185	0xbc5a0fcc	-0.01330943
186	0x3d0e5ea5	0.03475823
187	0xbd46b28a	-0.048510112
188	0x3c98f96b	0.01867362
189	0x3d1fe743	0.039038908
190	0xbe4118d7	-0.18857132
191	0x3dd012bf	0.101598255
192	0x3d3e2129	0.046418343
193	0xbe864a95	-0.26228777
194	0x3bd32c20	0.006444469
195	0x3e14279b	0.14468233
196	0xbb684989	-0.003544422
197	0xbf2bdb91	-0.67131907
198	0x3d0d3c71	0.03448147
199	0xbdc8ddd8	-0.09807938
200	0xbdfe869c	-0.124280185
201	0xbd75fc12	-0.060054846
202	0x3dbbd337	0.091711454
203	0xbe9697c4	-0.29412663
204	0xbc7e1db3	-0.0155100105
205	0xbe1ee656	-0.15517554
206	0xbd8e3c3d	-0.06945083
207	0x3c9017f4	0.017589547
208	0xbd59f86d	-0.053215433
209	0x3e2ef0e8	0.17084086
210	0x3c700e12	0.014651792
211	0x3d581b29	0.052760277
212	0x3ca6692d	0.020313824
213	0xbf078a9a	-0.52945864
214	0x3b751c21	0.00374008
215	0xbb93e5ee	-0.0045134937
216	0xbc5e59c2	-0.013571205
217	0xbd03a880	-0.032143116
218	0x3e89d5b9	0.2692087
219	0xbd440d62	-0.047864325
220	0xbb3ae5eb	-0.002851839
221	0x3ae9ca21	0.0017836728
222	0xbe24c22c	-0.16089696
223	0xbd29c674	-0.041449025
224	0x3d3d0bd7	0.04615387
225	0xbb229998	-0.0024810787
226	0x3e4eb6e0	0.20186949
227	0xbc995ee9	-0.018722015
228	0xbc8059fd	-0.01566791
229	0xbc85e309	-0.01634361
230	0x3c6f1a8a	0.01459373
231	0x3b6c13c9	0.0036022535
232	0x3d410137	0.0471203
233	0x3d448c68	0.047985464
234	0x3d3dda57	0.046350803
235	0x3e0b50f0	0.13605094
236	0xbd5e9323	-0.05433954
237	0x3e8c11d4	0.27357352
238	0xbf35f71e	-0.71080196
239	0xbbc59018	-0.00602914
240	0x3c7e10c6	0.015506929
241	0x3ba7d93d	0.0051223324
242	0xbd565cd8	-0.052334636
243	0xbed8cd7e	-0.42344278
244	0xbddfad8a	-0.10921772
245	0xbcdbbcd7	-0.026823444
246	0x3d4638c1	0.04839397
247	0x3ca47e20	0.020079672
248	0xbbf0f9d6	-0.0073540015
249	0x3d002031	0.0312807
250	0xbd40ebcc	-0.047099873
251	0x3d0e5c4b	0.034755986
252	0x3d7c5194	0.061601236
253	0xbca8425c	-0.020539455
254	0x3cc3ecc7	0.023916615
255	0xbe9e54f1	-0.3092418

l3.bias f4 [3]
0	0x3ef51f4f	0.4787545
1	0x3f01904a	0.5061079
2	0x3f0b5cc5	0.5443843
