model.pth (torch, 281213 bytes, 6 tensors)

l1.weight f4 [256, 11]
0	0xbe3195b6	-0.17342266
1	0xbe2bc24c	-0.16773337
2	0xbe0e814f	-0.13916515
3	0x3c8274f1	0.015924903
4	0x3e0c081b	0.13674967
5	0xbd640d41	-0.055676702
6	0x3e6d6898	0.2318443
7	0x3d888d45	0.0666757
8	0x3e52b1e2	0.2057567
9	0xbe6138c1	-0.21994306
10	0xbe2e21ac	-0.17005032
11	0xbe4e93cf	-0.20173572
12	0x3e8bf523	0.27335462
13	0x3ac00600	0.0014650226
14	0x3e333cef	0.17503713
15	0xbdb65be4	-0.089042455
16	0x3e21035c	0.15723938
17	0xbe1a0099	-0.1503929
18	0x3e03dafc	0.12876505
19	0x3e4d6213	0.20056944
20	0xbda131df	-0.0787084
21	0x3d78bb04	0.060725227
22	0xbe6ac118	-0.22925222
23	0x3e4b0997	0.19827877
24	0x3d2c7685	0.042105217
25	0x3d08e0d4	0.033417538
26	0xbe9a7e8f	-0.30174682
27	0xbe9f4bcf	-0.31112525
28	0xbe6ae958	-0.22940576
29	0x3e046576	0.1292933
30	0xbd62483e	-0.055244677
31	0xbe847ec6	-0.2587797
32	0xbbc14803	-0.005898477
33	0x3d5b3736	0.05351945
34	0x3e851e4e	0.25999683
35	0x3ebb9aec	0.36641634
36	0xbd7aa9fd	-0.06119727
37	0x3e0db8ef	0.13840078
38	0x3d5bd2c5	0.053667802
39	0x3dcc08ce	0.09962617
40	0xbd8f7451	-0.070046075
41	0x3d3b24d0	0.045689404
42	0x3e33b661	0.17550041
43	0x3e447c06	0.19187936
44	0x3e2d42bf	0.16919993
45	0x3ea10a9e	0.31453413
46	0xbdf340b4	-0.118775755
47	0x3e0132bd	0.12617011
48	0xbe1998dc	-0.14999717
49	0x3e0cd6a2	0.13753751
50	0x3e3b8a38	0.18314445
51	0xbe2a949e	-0.16658255
52	0xbd35f56e	-0.044423513
53	0x3a3a0cd3	0.0007097248
54	0x3d8275f6	0.063701555
55	0x3e4a780a	0.19772354
56	0xbd03d724	-0.032187596
57	0x3d1d6533	0.03842659
58	0x3e198b6e	0.14994594
59	0xbccf147a	-0.025278319
60	0x3d0836be	0.03325533
61	0x3e82ad89	0.25523022
62	0xbe28ad01	-0.16472246
63	0x3d4b1a73	0.04958577
64	0xbe5102e1	-0.20411254
65	0x3e69ef6e	0.22845241
66	0xbc9065f8	-0.017626747
67	0x3e1de38a	0.1541883
68	0x3d76793c	0.06017421
69	0x3d0cb9c6	0.034356855
70	0xbaf98b9c	-0.0019038799
71	0xbb6d5e46	-0.0036219521
72	0xbc7d3cd3	-0.015456396
73	0x3e7ff2cb	0.24994962
74	0xbdd0b814	-0.1019136
75	0x3ddd3c58	0.10802525
76	0x3e17570b	0.14779298
77	0xbe99d326	-0.30043906
78	0x3e6bd517	0.23030506
79	0xbda38584	-0.079844505
80	0xbe984a31	-0.29744104
81	0xbe07c606	-0.13259134
82	0xbe3035bc	-0.17207998
83	0x3d1ef8c6	0.038811468
84	0xbe949243	-0.2901784
85	0xbdd164ac	-0.1022428
86	0x3e4baf53	0.198911
87	0x3b1c6580	0.002386421
88	0x3d8fe861	0.07026745
89	0x3d3d9a1c	0.04628955
90	0x3e21edcc	0.15813369
91	0xbe5c9b6e	-0.21543667
92	0xbcdab87c	-0.026699297
93	0xbdbeb6de	-0.09312223
94	0x3e48fe1a	0.19628182
95	0x3d22a62d	0.03970926
96	0xbdd5fd28	-0.10448676
97	0xbdb3d051	-0.087799676
98	0xbe3836d3	-0.17989664
99	0xbdb91da6	-0.09038858
100	0x3e1d55f0	0.15364814
101	0xbd577c68	-0.052608877
102	0xbdca1b54	-0.09868494
103	0xbd3cb76b	-0.04607336
104	0xbd2a45e8	-0.041570574
105	0xbe2f1ff5	-0.17102034
106	0xbe40db77	-0.18833719
107	0x3e267f34	0.16259462
108	0xbdb6ba8e	-0.08922301
109	0xbe56a538	-0.20961463
110	0x3e534930	0.20633388
111	0x3d06d629	0.032919083
112	0x3e4b7c7f	0.1987171
113	0xbd1b4d0a	-0.037915267
114	0x3dd98d66	0.10622673
115	0xbe7c9945	-0.24667843
116	0x3e0e71b2	0.13910559
117	0xbc46a294	-0.012123723
118	0xbeb97b11	-0.36226705
119	0x3e68af27	0.22723065
120	0xbdaa1e35	-0.08306543
121	0xbe7b1b57	-0.24522148
122	0x3c3804c0	0.011231601
123	0x3db13804	0.08653262
124	0x3d9b421c	0.07580969
125	0x3db4634c	0.08808002
126	0xbe27cdea	-0.16387144
127	0xbd65cad4	-0.056101635
128	0xbd4c5b20	-0.04989159
129	0xbe8a2ddc	-0.26988113
130	0xbe6c5388	-0.2307874
131	0x3de3a364	0.11115149
132	0xbe93f3cf	-0.2889695
133	0x3e233131	0.15936734
134	0x3de65cd9	0.11248178
135	0xbe21a9e0	-0.15787458
136	0xbba75462	-0.0051064948
137	0x3e77503f	0.24151705
138	0xbdf919e3	-0.121631406
139	0x3e31c8c3	0.17361741
140	0xbc80d545	-0.015726695
141	0xbe85070b	-0.25981936
142	0xbe748308	-0.2387811
143	0xbdb26340	-0.08710337
144	0xbdc74830	-0.097305655
145	0xbd253050	-0.040329278
146	0x3e2565c2	0.16152099
147	0xbe592bf8	-0.21208179
148	0xbe177d7e	-0.14793965
149	0xbd350110	-0.044190466
150	0xbe6dbeff	-0.2321739
151	0xbe70afd2	-0.2350457
152	0xbd2cbb35	-0.042170722
153	0xbd8b2240	-0.06793642
154	0xbe803ec1	-0.25047877
155	0x3ddfe3fa	0.10932155
156	0xbe808fd5	-0.25109735
157	0x3d0eb3e0	0.03483951
158	0xbdeb6cb1	-0.114953406
159	0xbd6ff54c	-0.058583543
160	0xbe90951c	-0.2823876
161	0xbe02137e	-0.12702748
162	0xbd5b6f7d	-0.05357312
163	0xbe881bbb	-0.26583657
164	0x3e213d55	0.15746053
165	0xbe644aa8	-0.22294104
166	0xbd7a87a9	-0.06116453
167	0x3e3f6fad	0.18694945
168	0xbeaa4305	-0.33254257
169	0x3e1493ea	0.1450955
170	0xbd569d19	-0.052395914
171	0x3e100c2b	0.14067142
172	0x3d48b1ba	0.04899762
173	0x3e847f53	0.2587839
174	0x3ca740d8	0.020416662
175	0x3de075dc	0.1095998
176	0xbe834aa9	-0.256429
177	0x3cfce84f	0.030872492
178	0x3e04c32f	0.12965082
179	0xbe9950b3	-0.2994438
180	0xbe7005cf	-0.23439716
181	0xbdec592e	-0.11540447
182	0x3e9910fa	0.29895765
183	0x3e6a4791	0.22878863
184	0xbe803733	-0.25042114
185	0x3e174f14	0.1477626
186	0x3dae4e6e	0.08511053
187	0x3e48ef04	0.19622427
188	0x3e14bff0	0.14526343
189	0x3e918c42	0.2842732
190	0xbe8d50d1	-0.2760072
191	0x3e4524a4	0.19252259
192	0xbe8072e9	-0.2508767
193	0xbe932dea	-0.28745967
194	0xbe5a888b	-0.2134115
195	0xbdd0618a	-0.10174854
196	0xbe682861	-0.22671653
197	0x3e65e9f9	0.22452535
198	0x3e6533cd	0.22383042
199	0x3e79cc86	0.24394426
200	0xbcec34b4	-0.028833725
201	0xbe1dc6be	-0.15407845
202	0xbe7ae640	-0.24501896
203	0xbcf2476d	-0.029575074
204	0x3dbe8d82	0.09304334
205	0xbeb608ee	-0.35553688
206	0xbbcdef53	-0.006284633
207	0x3e8c2883	0.27374658
208	0x3e42d2ee	0.19025776
209	0x3e0d3cf6	0.13792786
210	0xbe1164b1	-0.14198567
211	0xbe20cda0	-0.1570344
212	0x3eac782d	0.33685437
213	0xbe1fcee8	-0.15606272
214	0xbcc8e5b1	-0.024523588
215	0xbdce53e4	-0.100745946
216	0x3e021af7	0.12705599
217	0x3d44c6e1	0.04804123
218	0xbe829be0	-0.25509548
219	0x3e69c97d	0.22830768
220	0x3e8a50b9	0.27014711
221	0xbdd0e731	-0.10200346
222	0x3e81a994	0.2532469
223	0x3e195f7d	0.14977832
224	0x3e2f933d	0.1714601
225	0x3d2c3121	0.04203904
226	0xbdcddf73	-0.10052385
227	0x3e3febec	0.18742341
228	0x3ccd1373	0.025033688
229	0xbe62a346	-0.22132596
230	0x3e3b8832	0.18313673
231	0xbe4e197c	-0.20126909
232	0xbeaf97cf	-0.34295508
233	0x3e7c7aa4	0.24656159
234	0x3e5f9eff	0.21837996
235	0xbe1803e2	-0.14845231
236	0xbdfb81a0	-0.122805834
237	0xbd0b0471	-0.033939783
238	0x3e476e0d	0.19475575
239	0xbea8db55	-0.32979837
240	0x3e80302a	0.25036746
241	0x3e0a139b	0.13484041
242	0x3c7a7ec0	0.015289009
243	0xbe820962	-0.25397784
244	0x3d805c94	0.06267658
245	0xbdabba6b	-0.08385166
246	0xbe614794	-0.21999961
247	0x3e340e8e	0.17583677
248	0xbd8a6cf1	-0.0675906
249	0xbdf2fbbe	-0.11864422
250	0xbe096766	-0.1341835
251	0x3d8ccb9e	0.068747744
252	0x3e6c383b	0.23068325
253	0xbe7bf7b3	-0.24606209
254	0x3d446b80	0.047954082
255	0x3e09e714	0.13467056

l1.bias f4 [256]
0	0xbdfea1d8	-0.12433213
1	0xbeb109cf	-0.34577796
2	0x3db68c1a	0.08913441
3	0x3e0e561c	0.13900036
4	0xbe6e5c7c	-0.23277467
5	0x3e2be8e1	0.16788055
6	0x3e3935e1	0.1808696
7	0xbe7d8159	-0.24756373
8	0xbe161a04	-0.14658362
9	0xbe88be4a	-0.2670768
10	0x3e821eb0	0.25414038
11	0xbe8eed8b	-0.27915606
12	0x3dae52b4	0.08511868
13	0xbe09f656	-0.13472876
14	0x3d847420	0.064674616
15	0xbc642dcc	-0.013926934
16	0xbe788d80	-0.24272728
17	0xbe248848	-0.16067612
18	0x3e4d8d7e	0.20073506
19	0x3e80ad6d	0.25132313
20	0xbde6456a	-0.112437084
21	0xbd8d8248	-0.06909615
22	0x3d8a443b	0.06751295
23	0xbe99fcca	-0.30075675
24	0xbe4d563f	-0.20052432
25	0x3e9b1a6c	0.30293596
26	0xbd1bc660	-0.038030982
27	0xbe98a81f	-0.29815766
28	0xbe338231	-0.17530133
29	0xbea0bc5d	-0.3139371
30	0xbdd60d87	-0.10451799
31	0xbe516148	-0.20447266
32	0xbea254d7	-0.31705353
33	0xbe8d0054	-0.27539313
34	0xbe397d90	-0.18114305
35	0xbe906e35	-0.2820908
36	0xbe23319b	-0.15936892
37	0xbe6a64d8	-0.22890031
38	0xbe2e6204	-0.17029577
39	0xbe2f25e2	-0.17104295
40	0xbeab868e	-0.33501095
41	0x3e13f620	0.14449358
42	0xbea10d14	-0.3145529
43	0x3e96a40c	0.29422033
44	0xbdbaef00	-0.09127617
45	0x3e2e6e8a	0.17034355
46	0x3db6660a	0.08906181
47	0xbe0f115b	-0.13971464
48	0xbd096930	-0.03354758
49	0xbe1edfdc	-0.15515083
50	0x3d042882	0.032265194
51	0x3e3e3a31	0.18576886
52	0x3e6cda88	0.23130238
53	0xbe767d52	-0.24071243
54	0xbe6f6943	-0.23379998
55	0xbe2c3556	-0.16817221
56	0xbea84c29	-0.32870606
57	0xbea45b09	-0.32100704
58	0x3e54df3c	0.20788282
59	0x3dedf3d7	0.116187744
60	0xbdc5969c	-0.09647867
61	0x3e230863	0.15921168
62	0x3e0c118f	0.13678573
63	0xbcdabe8c	-0.026702188
64	0xbd1c8dd2	-0.038221188
65	0xbe903373	-0.28164253
66	0xbe465093	-0.19366674
67	0xbe968983	-0.29401788
68	0x3e87cf6a	0.26525432
69	0x3d08550a	0.033284225
70	0x3df72ea0	0.1206944
71	0x3d8866e1	0.066602476
72	0x3dd53ad5	0.10411612
73	0xbe242a58	-0.16031778
74	0xbe0731c3	-0.13202576
75	0xbe9ebb9b	-0.31002507
76	0xbda3ee9d	-0.08004496
77	0x3dd13974	0.102160364
78	0x3dcb9e04	0.099422485
79	0xbdaf8533	-0.085703276
80	0x3e9e0889	0.30865887
81	0x3eb4ca77	0.35310718
82	0xbe467cf7	-0.19383608
83	0x3e601625	0.21883447
84	0x3e61abd5	0.22038205
85	0x3e0d2ba8	0.13786185
86	0xbe513735	-0.20431216
87	0xbe9d347f	-0.30704114
88	0xbe4bf269	-0.19916691
89	0x3dca3f3c	0.09875342
90	0xbe2aa06a	-0.16662756
91	0x3ead79fc	0.3388213
92	0x3e23301d	0.15936323
93	0x3e4aa5cd	0.1978981
94	0x3e71011c	0.2353558
95	0xbe12ff4f	-0.14355205
96	0xbe47759a	-0.19478455
97	0xbeae315e	-0.3402204
98	0xbd31d52f	-0.0434162
99	0xbe483170	-0.19550109
100	0x3e9524cc	0.29129636
101	0xbd9e0d15	-0.07717339
102	0x3de771a3	0.11300971
103	0x3e0830bd	0.13299842
104	0x3e84d269	0.2594178
105	0xbdf124f0	-0.117746234
106	0xbe6274e5	-0.22114904
107	0x3e3107d1	0.17288138
108	0x3ea9afc7	0.3314192
109	0xbe264d58	-0.16240442
110	0xbe4a769a	-0.19771805
111	0xbe372be0	-0.1788783
112	0x3ea4d8b1	0.32196572
113	0x3e7db4ae	0.24775955
114	0xbe179c74	-0.14805776
115	0xbe4136aa	-0.18868509
116	0x3ebd7324	0.37001908
117	0x3e391a62	0.1807647
118	0x3e598de8	0.21245539
119	0xbe8f0b0b	-0.27938113
120	0x3dcf8b85	0.10134033
121	0xbd8f63e9	-0.07001478
122	0x3e0fd596	0.1404632
123	0xbce9b839	-0.028530227
124	0xbe55afff	-0.20867918
125	0x3ea64d34	0.32480776
126	0xbd3451d4	-0.04402335
127	0xbdc8308c	-0.097748846
128	0xbdcd0949	-0.10011537
129	0x3e9a7107	0.30164358
130	0xbd89b0c9	-0.06723172
131	0xbda2f2e4	-0.07956484
132	0x3daa8fc4	0.08328202
133	0xbe63e45d	-0.22255082
134	0xbb829fb5	-0.0039863237
135	0xbd89072c	-0.06690821
136	0xbd090860	-0.033455253
137	0xbe0024a7	-0.12513982
138	0xbe1d364a	-0.15352741
139	0x3eb26ee5	0.3485023
140	0xbe689d50	-0.2271626
141	0xbe40723f	-0.18793581
142	0xbe3337d4	-0.17501765
143	0xbe388479	-0.18019284
144	0x3e1e9b11	0.1548884
145	0xbe9e34fc	-0.308998
146	0x3d974c4a	0.07387598
147	0xbd5d7eb7	-0.054075923
148	0x3e969a94	0.2941481
149	0xbe6dd5a1	-0.23226024
150	0xb70930aa	-8.177167e-06
151	0xbd65b017	-0.056076135
152	0xbe62ffa7	-0.22167836
153	0x3df6135f	0.120154135
154	0xbd11cb9e	-0.035594575
155	0xbe74510e	-0.23859045
156	0x3e86705d	0.262576
157	0x3e8902ad	0.26759854
158	0xbdc8cab4	-0.098042876
159	0xbd478d85	-0.048718948
160	0xbe9cb68a	-0.30608016
161	0xbea0d753	-0.3141428
162	0x3e68866e	0.22707531
163	0x3e75f95c	0.24020904
164	0xbddccf7c	-0.10781762
165	0x3e46a8df	0.19400357
166	0x3e7aa272	0.2447603
167	0xbe454b68	-0.19267046
168	0xbd8ddfb7	-0.06927436
169	0x3ce5b8aa	0.028042156
170	0x3e764f98	0.240538
171	0xbe3026da	-0.1720232
172	0xbea0ceff	-0.31407925
173	0x3da6f842	0.0815282
174	0xbe72e85f	-0.23721455
175	0xbe440850	-0.19143796
176	0xbe612732	-0.21987608
177	0xbdaa70bc	-0.083222836
178	0xbe0b41ee	-0.13599369
179	0x3e7bcf38	0.24590766
180	0xbe2166b8	-0.1576184
181	0x3e91bb1d	0.2846307
182	0x3cab3f55	0.020904223
183	0xbe7b1ccf	-0.24522708
184	0x3aa232c8	0.0012374753
185	0x3ea023bc	0.31277263
186	0xbe4f9aba	-0.20273867
187	0x3e8af204	0.27137768
188	0x3e96db14	0.29464018
189	0xbe6022e2	-0.21888307
190	0xbdbccf84	-0.09219268
191	0xbe7204a1	-0.23634578
192	0xbd517987	-0.051141288
193	0xbe7f6f71	-0.24944855
194	0x3de8ac08	0.11360937
195	0x3e119818	0.14218175
196	0xbe3ec388	-0.18629277
197	0xbe85f9f5	-0.26167265
198	0xbe9fa995	-0.31184068
199	0xbe542d23	-0.20720343
200	0xbd357118	-0.044297308
201	0x3e22fc3a	0.1591653
202	0xbe017c34	-0.12645036
203	0x3e8f6810	0.2800908
204	0xbd0416b5	-0.032248218
205	0xbdc61bdd	-0.09673283
206	0xbe444d64	-0.19170147
207	0xbe6349fc	-0.22196192
208	0xbd1eea9d	-0.038797963
209	0x3e4b5391	0.19856097
210	0xbeabc12d	-0.3354582
211	0x3e4eff86	0.20214662
212	0x3e84dc8d	0.25949517
213	0xbe8d9c88	-0.27658486
214	0x3e314af4	0.17313749
215	0xbe53d445	-0.20686443
216	0xbdbd226f	-0.09235083
217	0xbe429d32	-0.19005278
218	0x3e45faba	0.19333926
219	0xbe41289b	-0.18863146
220	0xbe7ee6a4	-0.2489267
221	0xbdc47825	-0.09593228
222	0xbe9ba1f3	-0.30396995
223	0xbd5c97b7	-0.053855624
224	0xbe7a328c	-0.24433345
225	0x3dca9f30	0.09893644
226	0xbe3d7c92	-0.18504551
227	0x3dffcdcd	0.12490425
228	0xbda51d88	-0.08062273
229	0x3e95f676	0.29289597
230	0xbe8dd496	-0.27701253
231	0xbddc4ace	-0.10756455
232	0xbe967361	-0.29384902
233	0xbe20b153	-0.15692644
234	0x3e9c59fc	0.30537403
235	0x3e82f77c	0.2557944
236	0x3e8cd434	0.27505648
237	0xbe749af4	-0.23887235
238	0x3e97a346	0.29616755
239	0xbe11acb2	-0.14226034
240	0x3d92e1d2	0.07171978
241	0x3e011be3	0.12608294
242	0xbda290c0	-0.07937765
243	0xbe14c9cd	-0.14530106
244	0x3df1db15	0.11809365
245	0xbdb8b6d1	-0.090192445
246	0x3e6d6b30	0.2318542
247	0xbe8515d0	-0.25993204
248	0x3e97bbba	0.29635412
249	0x3e5d4a13	0.21610288
250	0x3da68131	0.0813011
251	0x3e8d0ba3	0.2754794
252	0xbe8861e2	-0.2663718
253	0xbcf4bcbf	-0.029875157
254	0x3de7448c	0.11292371
255	0x3e2a2ed4	0.16619426

l2.weight f4 [256, 256]
0	0xbd490897	-0.049080458
1	0x3d0b00ee	0.033936433
2	0xbca32458	-0.019914791
3	0x3c02e17c	0.00798833
4	0xbd2ae417	-0.04172143
5	0xbc6615cd	-0.014043284
6	0xbd07ce35	-0.03315564
7	0xbc306dad	-0.010768336
8	0xbd84d6b5	-0.064862646
9	0x3cbbb30c	0.022912525
10	0x3d0d88fb	0.034554463
11	0xbc748568	-0.014924385
12	0xbd23a157	-0.039948788
13	0x3d537099	0.051621053
14	0x3c859620	0.016306937
15	0xbcd128d3	-0.025532162
16	0xbd2063bf	-0.039157625
17	0x3cccf8b0	0.025020927
18	0xbd5a7b27	-0.053340103
19	0x3d441996	0.047875963
20	0xbc839eca	-0.016066927
21	0x3cf5ac80	0.029989481
22	0x3d091cd5	0.033474762
23	0xbd4a79f2	-0.049432702
24	0xbd03978a	-0.03212694
25	0x3c99a7b9	0.018756734
26	0x3d1fa017	0.038971033
27	0xbc1c879e	-0.009553818
28	0x3c99135c	0.01868599
29	0x3af30236	0.0018540088
30	0x3bd810d6	0.006593804
31	0xbbe8d58e	-0.007105536
32	0x3d3aac91	0.04557473
33	0x3d8bd2c0	0.06827307
34	0x3aa11cd6	0.0012291919
35	0x3ca05db2	0.019575927
36	0x3c899cb5	0.016798357
37	0xbd028709	-0.03186706
38	0xbd340b7d	-0.04395627
39	0x3cb748d4	0.022373594
40	0x3d770692	0.060309
41	0x3d97538c	0.07388982
42	0x3d385706	0.045004867
43	0xbd826593	-0.0636703
44	0xbbb8588f	-0.0056257914
45	0xbd0cd385	-0.03438141
46	0xbbc7588d	-0.006083554
47	0xbcc940c6	-0.02456702
48	0xbbba90aa	-0.005693515
49	0x3cf1ba33	0.029507732
50	0x3d3afca6	0.0456511
51	0xbd870b29	-0.065939255
52	0xbcf5f4a9	-0.03002389
53	0x3c25709e	0.010097651
54	0xbc0a7da3	-0.008452806
55	0xbc8a0ca8	-0.016851738
56	0xbd20238f	-0.03909641
57	0x3ce00096	0.02734403
58	0xbd2bda92	-0.04195649
59	0xbbf4db28	-0.0074724145
60	0xbd809788	-0.06278902
61	0x3d2a3c77	0.04156157
62	0xbd531a9d	-0.051539052
63	0xbd38d76e	-0.045127325
64	0x3add88a8	0.0016901689
65	0xbb0170f7	-0.001975117
66	0xbcc061dc	-0.023484163
67	0xbd132fa8	-0.03593412
68	0x3ca54a54	0.020177044
69	0xbd8ebc09	-0.069694586
70	0xbcb9fffb	-0.022705069
71	0x3d153560	0.036427855
72	0x3d15a593	0.036534857
73	0x3c681efc	0.0141675435
74	0xbd2ee2a3	-0.042696606
75	0xbd279e33	-0.040922355
76	0xbca1e68f	-0.01976326
77	0xbd527d7a	-0.051389195
78	0x3d3cf7bd	0.0461347
79	0x3d2ff7dc	0.042960986
80	0x3ba99ac8	0.005175922
81	0x3d836435	0.06415597
82	0x3d2c2375	0.042026002
83	0x3d1eb711	0.038748804
84	0x3b4e9a7a	0.003152518
85	0xbce43248	-0.027856007
86	0x3d2a9083	0.041641723
87	0x3d11412d	0.035462547
88	0x3c636fd0	0.013881639
89	0x3cc3ccfb	0.023901453
90	0xbd487ca0	-0.048946977
91	0xbcabce75	-0.02097247
92	0xbc7a346f	-0.01527129
93	0x3c965198	0.018349454
94	0xbc2e9827	-0.010656393
95	0x3d5c0e3f	0.053724524
96	0xbb526a59	-0.0032106845
97	0xbd1e8004	-0.038696304
98	0xbc8a444b	-0.016878268
99	0xbc2d58b9	-0.010580235
100	0xbd922425	-0.071358
101	0xbd99ded1	-0.07513202
102	0xbd6a73a8	-0.057239205
103	0x3ca93f18	0.020659968
104	0xbc0edcbd	-0.00871962
105	0x3c6c4bae	0.01442234
106	0x3d07fd62	0.03320063
107	0xbc151773	-0.009099829
108	0xbbe92aba	-0.007115689
109	0xbd55c104	-0.052186027
110	0xbce41670	-0.02784273
111	0xbcef83b2	-0.029237602
112	0x3d1274fc	0.035756096
113	0x3cadcc70	0.021215647
114	0xbc0dac9c	-0.00864711
115	0x3ca4e0a4	0.020126648
116	0xbd72165e	-0.059103362
117	0x3d47ad94	0.04874952
118	0xbd8d70d3	-0.06906285
119	0x3c41d9c2	0.011831703
120	0x3cd14be9	0.025548892
121	0xbd98ec0e	-0.07466899
122	0x3d2e936b	0.042621057
123	0xbd3b7151	-0.045762364
124	0x3cafb6e8	0.021449521
125	0x3b822b15	0.003972421
126	0x3d863cee	0.0655459
127	0xbccc99da	-0.024975706
128	0xbd4031f9	-0.046922658
129	0xbc961dc9	-0.01832475
130	0x3bc110fa	0.0058919163
131	0xbcc2f7e0	-0.023799837
132	0xbd98a98b	-0.07454213
133	0x3d7fd92a	0.062462963
134	0xbd0d12e7	-0.034441855
135	0x3c8c0718	0.017093226
136	0xbd8cfb8b	-0.068839155
137	0xbbf199c0	-0.0073730648
138	0xbd91ade1	-0.07113243
139	0x3d3845a7	0.0449883
140	0xbd64b206	-0.05583384
141	0xbd81f916	-0.063463375
142	0x3b169bcb	0.0022981043
143	0xbcad599e	-0.021160897
144	0x3c949dc8	0.018141642
145	0x3d180dc5	0.037122507
146	0xbcf77bed	-0.03021046
147	0xbbc77a86	-0.006087604
148	0xbcf823e6	-0.030290555
149	0xbc7f9bd0	-0.015601113
150	0xbd2cb32f	-0.04216307
151	0x3cc23030	0.023704618
152	0x3d8d4c05	0.06899265
153	0x3c94e437	0.018175228
154	0xbd901ac1	-0.07036353
155	0xbd82b2cf	-0.06381761
156	0x3d24d622	0.040243275
157	0xbd2fcb3b	-0.042918425
158	0xbd32fb6b	-0.043696802
159	0x3c432ec0	0.011913002
160	0xbd5f2662	-0.054479964
161	0xbda36294	-0.07977787
162	0x3c5f4c91	0.013629095
163	0xbcbb3dc1	-0.022856595
164	0xbd97c6b4	-0.074109465
165	0xbca86289	-0.020554798
166	0x3d2237f7	0.039604153
167	0x3d5735b6	0.052541457
168	0xbd1f5d91	-0.03890759
169	0xbc7d4edd	-0.015460697
170	0x3c7a25cb	0.0152678
171	0xbc46aa3b	-0.012125547
172	0x3ca4de10	0.020125419
173	0xbd441fbe	-0.047881834
174	0xbd5efa4f	-0.05443793
175	0x3cac7f3e	0.021056768
176	0xbd0b966e	-0.034079008
177	0xbd40d5c1	-0.04707885
178	0x3c4da3a3	0.012551221
179	0x3ba68054	0.005081216
180	0xbc6773ba	-0.014126712
181	0xbd33e3ba	-0.04391835
182	0x3d2653da	0.04060731
183	0x3d82d55e	0.06388353
184	0x3d76b591	0.06023175
185	0x3d011eea	0.031523623
186	0x3d304426	0.04303374
187	0xbd54811b	-0.051880937
188	0x3c1be71e	0.009515552
189	0x3d153d45	0.036435384
190	0xbd0b539a	-0.034015276
191	0xbd08dbbe	-0.033412687
192	0xbd8c80f8	-0.06860536
193	0xbcea491c	-0.028599314
194	0x3d2eb961	0.04265726
195	0x3d069704	0.032858863
196	0xbce54736	-0.027988058
197	0x3d3cf19e	0.04612886
198	0xbd166589	-0.036717925
199	0xbcbcd234	-0.023049451
200	0x3d4eba76	0.05047079
201	0x3b64f0d4	0.0034933584
202	0xbc45d8a0	-0.012075573
203	0xbd2ec60e	-0.04266935
204	0x3cb148d3	0.02164117
205	0xbc0612cf	-0.008183195
206	0xbc170661	-0.009217829
207	0x3d1de4c8	0.03854826
208	0x3cc48f83	0.023994213
209	0xbc03982a	-0.008031884
210	0xbcf63d0d	-0.030058408
211	0xbd936e08	-0.07198721
212	0xbd815a72	-0.06316079
213	0x3bffc484	0.007805409
214	0xbd87b338	-0.0662598
215	0x3c8d4a27	0.017247273
216	0x3d3005d0	0.042974293
217	0xbcba9ab4	-0.022778846
218	0x3ce7b33a	0.028283704
219	0xbcbbba47	-0.022915972
220	0xbc8723fb	-0.016496649
221	0xbc0e0654	-0.008668501
222	0x3c56a556	0.013100943
223	0x3c0ca6f9	0.008584731
224	0xbd5e1a63	-0.054224383
225	0xbd602aec	-0.054728433
226	0x3d0f19f4	0.03493686
227	0x3c132a93	0.008982318
228	0xbb71445a	-0.0036814422
229	0xbcacc7e4	-0.021091409
230	0xbd90698d	-0.07051382
231	0xba612d80	-0.0008589849
232	0xbd1b1a4a	-0.037866868
233	0xbd6294eb	-0.0553178
234	0x3c6c2f63	0.014415595
235	0xbc34b678	-0.011029832
236	0xbd4e5a2b	-0.05037896
237	0x3d63ba59	0.055597637
238	0xbad04fcd	-0.0015892923
239	0x3d532834	0.051552013
240	0x3c8e79ce	0.017392065
241	0xbd6a509d	-0.057205785
242	0xbceaefb0	-0.028678745
243	0xbd487222	-0.04893697
244	0x3d3502f4	0.04419227
245	0xbd8136ca	-0.06309278
246	0xbd8c0b02	-0.06838037
247	0x3b636da0	0.0034702793
248	0xbc8ab3e5	-0.016931484
249	0x3d4ea580	0.0504508
250	0x3d397d20	0.045285344
251	0xbd860b63	-0.065451406
252	0x3cac49e4	0.021031328
253	0x3d63d775	0.055625398
254	0xbc3d8fb7	-0.011569909
255	0x3d5c97af	0.053855594

l2.bias f4 [256]
0	0xbc1dc4ff	-0.009629487
1	0xbcfeb574	-0.031092383
2	0x3cbd3cf3	0.023100352
3	0x3aebabab	0.0017980238
4	0x3c1433e4	0.009045575
5	0x3dd438d1	0.10362399
6	0x3db115e6	0.08646755
7	0x3d1ddda3	0.038541447
8	0xbbc2e6c9	-0.005947922
9	0xbc7c3430	-0.015393302
10	0xbd732913	-0.059365343
11	0x3cc8131a	0.02442317
12	0x3d4264db	0.047459465
13	0x3d398b48	0.045298845
14	0x3cf908cb	0.0303997
15	0xbd4a76ae	-0.049429588
16	0xbc7cc1ff	-0.015427112
17	0xba9cfd6d	-0.0011977382
18	0xbb77f867	-0.0037837268
19	0x3c7a2aa3	0.015268954
20	0x3e0f2483	0.13978772
21	0xbc8e3995	-0.017361442
22	0xbc440c6f	-0.011965855
23	0xbd3d1ff3	-0.046173047
24	0xbd584b13	-0.05280597
25	0x3dc56f5e	0.09640382
26	0xbdb033ff	-0.086036675
27	0xbd702f67	-0.058638956
28	0xbd557a88	-0.052118808
29	0xbcf69a78	-0.030102953
30	0x3c43dca7	0.011954463
31	0x38f10042	0.000114918235
32	0xbb63ec06	-0.0034778132
33	0x3bd7068e	0.0065620607
34	0xbceba8c4	-0.028766997
35	0x3d21f105	0.039536495
36	0x3d30e06c	0.043182775
37	0xbd65a009	-0.056060825
38	0x3e05a629	0.13051666
39	0xbd48452b	-0.04889409
40	0x3d3c4274	0.045961812
41	0xbd7c1264	-0.061540976
42	0x3c0e9c5e	0.008704273
43	0xbd015a45	-0.03158023
44	0xbc244578	-0.010026328
45	0x3db06c3f	0.08614396
46	0x3cc129bc	0.02357947
47	0xbcdc84b2	-0.026918743
48	0xbd9a0f10	-0.07522404
49	0x3c98d918	0.018658206
50	0xbd2bd446	-0.041950487
51	0x3df59786	0.119917914
52	0x3c5f1ad9	0.013617241
53	0xbbb2f774	-0.0054616276
54	0xbd772225	-0.060335297
55	0x3d283a28	0.041071087
56	0xbcd9351c	-0.026514582
57	0x3dd07468	0.10178453
58	0x3d5cf162	0.053941138
59	0xbd8e2bf2	-0.06941976
60	0xbc38da42	-0.0112825055
61	0xbc895a6c	-0.01676675
62	0xbd1587d5	-0.036506493
63	0x3e129123	0.14313178
64	0x3c75133b	0.014958198
65	0x3cc08560	0.023501098
66	0x3c1c64b2	0.009545492
67	0x3b0af3e5	0.0021202501
68	0x3d17d3a5	0.037067074
69	0xbca20bed	-0.019781077
70	0x3da33e69	0.07970888
71	0xbd88ca3a	-0.06679197
72	0x3c6b067a	0.014344806
73	0xbcf9fe24	-0.030516692
74	0xbd3730fe	-0.044724457
75	0xbcd8c215	-0.026459733
76	0xbc2b0aa3	-0.010439548
77	0x3cc139d7	0.02358715
78	0xbce5b0dc	-0.028038435
79	0xbc88285f	-0.016620813
80	0x3c0b9447	0.008519239
81	0x3d5d8d1c	0.05408965
82	0xbcfdc901	-0.030979635
83	0x3d6fee0a	0.05857662
84	0xbc54a57c	-0.012978908
85	0x3dc29c55	0.09502474
86	0x3c082fdd	0.008312193
87	0xbcbe5541	-0.023234012
88	0x3d99cae7	0.07509404
89	0x3b061f4d	0.0020465434
90	0x3c0697f0	0.008214936
91	0x3c584320	0.013199598
92	0xbd496312	-0.049166746
93	0x3ce4b23f	0.027917026
94	0x3dd4ffa1	0.1040032
95	0xbd04118d	-0.0322433
96	0xbd1eba57	-0.038751926
97	0x3cc4036b	0.023927411
98	0xbd8ff382	-0.07028867
99	0xbc1552a1	-0.009113939
100	0x3d2f6bfb	0.042827588
101	0xbd68b99e	-0.056817643
102	0x3dacde4a	0.08440836
103	0x3bb51e09	0.005527262
104	0xbd0b3e04	-0.03399469
105	0x3b8cf8d8	0.0043021254
106	0x3d181575	0.037129838
107	0x3e02d84b	0.12777822
108	0xbd5aa184	-0.05337669
109	0x3b20ec89	0.0024555048
110	0x3cd945e9	0.026522594
111	0xbaab040f	-0.0013047474
112	0xbc899b40	-0.016797662
113	0x3dbbeb05	0.09175686
114	0x3d213fa0	0.03936732
115	0xbd678754	-0.056525543
116	0xbcfe86cc	-0.031070136
117	0x3d1bfedb	0.038084846
118	0xbd2c22f2	-0.042025514
119	0xbd3b91be	-0.045793287
120	0xbd4fcad7	-0.050730553
121	0x3cf36ca0	0.029714882
122	0x3e052acf	0.13004611
123	0xbd1d9364	-0.03847064
124	0xbd49b137	-0.04924127
125	0x3c92fbcb	0.01794233
126	0x3c561a60	0.013067812
127	0xbd2f7dfc	-0.042844757
128	0x3d195bb0	0.037440956
129	0x3d31fa56	0.04345163
130	0xbc9e061a	-0.019290019
131	0xbcebebfb	-0.028799048
132	0xbd9f1a86	-0.07768731
133	0x3cd5327f	0.026025055
134	0x3c0f1de3	0.008735153
135	0x3ccea114	0.025223292
136	0x3d5c9ff2	0.053863473
137	0x3df70937	0.120623045
138	0x3d418674	0.047247365
139	0xbd2e0b92	-0.042491503
140	0x3da54c36	0.08071177
141	0xbcc9444d	-0.024568701
142	0xbd1037ca	-0.035209455
143	0xbcbda3cf	-0.0231494
144	0xbc85824d	-0.016297484
145	0x3c74e67b	0.014947529
146	0xbd2ff022	-0.042953618
147	0xbc9afc18	-0.018919036
148	0xbdacef88	-0.084441245
149	0x3d157133	0.03648491
150	0x3d59e72e	0.053198986
151	0xbcbc1ab8	-0.02296196
152	0x3d5c1b37	0.05373689
153	0x3da19f6a	0.07891734
154	0xbc1bbee1	-0.009505958
155	0x3d63c079	0.055603478
156	0xbd828c18	-0.06374377
157	0xbd450efc	-0.048109993
158	0x3d8c1427	0.06839781
159	0x3d0ec2e6	0.03485384
160	0x3cf8179e	0.030284699
161	0xbd26a0a1	-0.04068053
162	0xbd834ff6	-0.06411736
163	0xbd4c8c57	-0.049938526
164	0x3d40f02b	0.047104042
165	0xbd22c217	-0.03973588
166	0x3c5d8a9f	0.013521819
167	0x3d1134ec	0.03545086
168	0x3d4d8eb3	0.050184917
169	0xbd0b02b1	-0.033938114
170	0x3b02eb48	0.0019976664
171	0x3c096db6	0.0083879735
172	0x3e10a05a	0.1412367
173	0xbd119d7e	-0.035550587
174	0x3d1703b7	0.036868777
175	0x3c9c6d21	0.019095005
176	0xbc512454	-0.012765009
177	0x3d0de63c	0.034643397
178	0xbd5dd277	-0.054155793
179	0xbc6a73b8	-0.014309816
180	0x3c927e3a	0.017882455
181	0xbd53d31c	-0.051715
182	0xbc159944	-0.00913078
183	0x3da69350	0.081335664
184	0x3c892ede	0.01674598
185	0x3cf2316b	0.02956458
186	0x3df872d2	0.12131275
187	0x3bce8c70	0.0063033625
188	0xbc7431da	-0.014904464
189	0x3d83111a	0.06399746
190	0xba3977c5	-0.0007075037
191	0xbd19cc24	-0.0375482
192	0x3d920d03	0.07131388
193	0x3c150b24	0.009096894
194	0x3d79b85e	0.060966842
195	0xbc4fb382	-0.012677075
196	0x3d031ad2	0.032008
197	0xbb036ef7	-0.0020055154
198	0xbce6cffc	-0.028175347
199	0x3d5c7202	0.053819664
200	0x3cf42329	0.029801922
201	0xbc7a1490	-0.015263692
202	0xbd2fdb28	-0.042933613
203	0x3d519411	0.051166598
204	0xbcf1d2e0	-0.029519498
205	0xbce4b3d2	-0.027917776
206	0x3c0f0742	0.008729758
207	0x3dc60342	0.0966859
208	0x3dd000bb	0.10156389
209	0x3dbca14d	0.09210453
210	0xbd1ec384	-0.038760677
211	0x3c8a2f1a	0.016868163
212	0xbd5200fd	-0.051270474
213	0x3d2af311	0.041735712
214	0x3d1d4dbe	0.03840422
215	0xbc2a6a28	-0.010401286
216	0xbd5d9cc0	-0.054104567
217	0xbd8aad2d	-0.06771312
218	0xbd0f8f5e	-0.035048835
219	0xbd90ea37	-0.07075923
220	0x3d0b3d4b	0.033994
221	0x3d2034ec	0.03911297
222	0x3d1572ff	0.036486622
223	0xbd58c6c3	-0.05292393
224	0x3b85c5fe	0.0040824404
225	0xbbbdaead	-0.0057886452
226	0xbd89445d	-0.067024924
227	0x3d0afd51	0.033932988
228	0x3d31ce4f	0.04340964
229	0x3c9ec989	0.019383209
230	0xbd36468e	-0.04450088
231	0xbb40370f	-0.0029329692
232	0x3c5c6c0a	0.013453493
233	0xbced19de	-0.028942998
234	0xbd99814c	-0.074953645
235	0x3d991043	0.07473805
236	0x3de32599	0.110911556
237	0xbd5fe53c	-0.054661974
238	0xbd20dcba	-0.039273
239	0xbd2602ba	-0.040529944
240	0x3cb3b9fc	0.02193927
241	0x3d173ee4	0.03692521
242	0xbd911766	-0.07084541
243	0xbcd3c853	-0.025852358
244	0x3d3f1c68	0.04665795
245	0x3bd6f1e2	0.0065595964
246	0x3d268fe8	0.040664583
247	0x3c60bf13	0.013717431
248	0xbb977a4a	-0.0046227323
249	0xbd06d550	-0.032918274
250	0xbcf0251a	-0.029314566
251	0x3d27139e	0.040790193
252	0xbd8584a0	-0.06519437
253	0xbd71c5c6	-0.059026502
254	0x3dab5fe7	0.08367901
255	0xbce9b503	-0.028528696

l3.weight f4 [3, 256]
0	0x3c96bab3	0.018399572
1	0x3cc0c82c	0.02353295
2	0x3d4fc7c9	0.05072764
3	0x3c86337e	0.016381975
4	0x3d6536d7	0.055960502
5	0xbd96b3a1	-0.0735848
6	0xbd738ae2	-0.05945862
7	0xbd028913	-0.031869005
8	0x3cbe0955	0.02319781
9	0x3d7db7ca	0.061942853
10	0x3d018398	0.03161964
11	0x3c03cbe0	0.008044213
12	0xbda58e66	-0.08083801
13	0x3d5a1c13	0.05324943
14	0x3d515164	0.05110301
15	0x3be1d010	0.006891258
16	0x3cc86d34	0.024466135
17	0xbd6a7e5a	-0.057249404
18	0x3d605537	0.054768767
19	0x3c3e8d9a	0.01163044
20	0xbd89672e	-0.06709133
21	0x3bab32f9	0.0052245823
22	0x3cdd67fa	0.027027119
23	0xbd4a5e01	-0.049406055
24	0xbccfa39c	-0.02534657
25	0xbd18a006	-0.037261985
26	0xbd6ac302	-0.05731488
27	0x3cb7abe8	0.022420838
28	0x3d0fd426	0.03511443
29	0x3cf53a58	0.029935047
30	0xbc3c2378	-0.011483066
31	0xbc213df0	-0.009841427
32	0x3c548558	0.012971245
33	0x3c997499	0.018732356
34	0x3d264f75	0.04060312
35	0xba64d4c8	-0.00087292166
36	0x3cca918e	0.024727609
37	0xbd1f9d10	-0.038968146
38	0xbd631520	-0.05544007
39	0xbcc4eb7f	-0.024038075
40	0x3cafff63	0.021484083
41	0x3cdd592c	0.02702006
42	0x3ba30ca0	0.0049758703
43	0x3bffbacf	0.0078042517
44	0xbca913ca	-0.020639319
45	0xbd6b9c28	-0.05752197
46	0xbc8ce1fd	-0.017197603
47	0xbd2d3c96	-0.042294107
48	0xbc787287	-0.015164024
49	0xbd4642a5	-0.0484034
50	0x3d500fd6	0.050796352
51	0xbdc8bfa6	-0.09802179
52	0x3d553212	0.052049704
53	0xb914e29e	-0.00014198801
54	0xbad27bc2	-0.0016058611
55	0x3d3332ce	0.043749623
56	0x3d3a1e64	0.04543914
57	0xbc2d422f	-0.010574861
58	0xbd2b6153	-0.041840862
59	0xbd3d33b4	-0.046191886
60	0x3a782a3e	0.0009466744
61	0x3d736986	0.059426807
62	0xbd2fd5d1	-0.04292852
63	0xbd510a8c	-0.05103545
64	0x3cc772d4	0.024346747
65	0xbbd63919	-0.0065375683
66	0xbd6cf06e	-0.05784648
67	0x3ca3c9e1	0.019993724
68	0xbc953504	-0.018213756
69	0x3d02d64f	0.03194266
70	0xbdac3f9f	-0.08410572
71	0xba4a5962	-0.00077190076
72	0x3cee01f8	0.029053673
73	0x3c9c9e78	0.019118533
74	0x3d365391	0.04451329
75	0x3a8ed6d2	0.0010897762
76	0x3c6e745e	0.014554111
77	0x3cc83eeb	0.024444064
78	0xbd247da8	-0.040158898
79	0xbc93f81f	-0.01806265
80	0x3d221244	0.0395682
81	0xbc5fc61a	-0.013658071
82	0x3b873562	0.004126237
83	0xbd9b039a	-0.07569046
84	0xbd50e27a	-0.050997235
85	0xbd865b73	-0.06560411
86	0x3cc56245	0.02409471
87	0x3d1f41cd	0.038881112
88	0xbd290d09	-0.041272197
89	0xbd3f717f	-0.046739098
90	0xbd079ce4	-0.033108607
91	0xbd165d27	-0.03670993
92	0xbc1be758	-0.009515606
93	0x3d56d483	0.05244876
94	0xbd825565	-0.06363944
95	0x3c94b8f9	0.018154608
96	0xbbb29a79	-0.0054505435
97	0x3c030421	0.00799659
98	0x3c9bb628	0.019007757
99	0xbd080539	-0.033208106
100	0xbb20629f	-0.0024472845
101	0xbd358bb6	-0.04432269
102	0xbd649370	-0.05580467
103	0x3d241935	0.0400631
104	0xbc401d45	-0.011725728
105	0xbd120260	-0.035646796
106	0xbc63cbee	-0.013903601
107	0xbdac696c	-0.08418545
108	0xbd4a87b8	-0.049445838
109	0x3aec3efd	0.0018024143
110	0x3d46d60e	0.048543982
111	0xbd242a21	-0.04007924
112	0xbc6e3374	-0.014538635
113	0xbd982024	-0.07428005
114	0x3d44ecac	0.04807727
115	0xbccb5f9c	-0.024825864
116	0x3ba221a0	0.004947856
117	0xbaa2f9af	-0.0012434031
118	0x3d574034	0.052551463
119	0xbd2d9376	-0.042376958
120	0x3cb5268f	0.022113113
121	0x3bc90804	0.0061349887
122	0xbd67cda0	-0.056592584
123	0x3ca7d824	0.020488806
124	0xbd76a5d8	-0.060216755
125	0xbcaf8cfc	-0.021429531
126	0x3d381d9e	0.04495012
127	0xbca3c27f	-0.019990204
128	0xbcf80d4d	-0.03027978
129	0x3b0af6af	0.0021204164
130	0xbd3cfbf1	-0.046138708
131	0xbd1ff0fe	-0.039048187
132	0xbd3b356a	-0.045705236
133	0x3ca551ef	0.02018067
134	0x3d6e228b	0.05813841
135	0x3b80fe1b	0.0039365417
136	0xbca4f2bc	-0.020135276
137	0xbd29b2df	-0.04143035
138	0xbd56e4d2	-0.052464314
139	0x3d643960	0.05571878
140	0xbd18d60f	-0.037313517
141	0xbcb853d0	-0.022500902
142	0xbd7062f3	-0.058688115
143	0xbd14039c	-0.036136255
144	0xbc1b1e46	-0.009467667
145	0x3d3d6de1	0.046247367
146	0x3c027568	0.007962562
147	0x3d38dc0e	0.045131736
148	0x3c8d044c	0.017213963
149	0xbcb4d454	-0.022073902
150	0xbd3a03dd	-0.04541384
151	0x3ce0e9c0	0.02745521
152	0x3d64d90a	0.055871047
153	0xbd9cdc0f	-0.0765916
154	0xbc036899	-0.0080205435
155	0xbd499798	-0.049216837
156	0x3b8ab200	0.004232645
157	0xbd606c97	-0.05479106
158	0xbd7a6fc6	-0.06114175
159	0xbd777ebb	-0.060423594
160	0xbd2c2181	-0.04202414
161	0x3d40ce88	0.047071964
162	0xbd45ddbf	-0.048307177
163	0x3d5ba3f0	0.05362314
164	0x3d12b2c5	0.03581502
165	0xbd74d4ee	-0.059773378
166	0x3c297d50	0.010344818
167	0x3d4078a3	0.04699005
168	0x3c1984a5	0.009370004
169	0xbd082e14	-0.03324707
170	0xbb0f8d04	-0.002190412
171	0x3cfc6fa8	0.03081496
172	0xbdd826d6	-0.10554282
173	0xbb820e20	-0.003968969
174	0x3d0599ad	0.03261726
175	0x3ccb66d7	0.024829311
176	0x3d20c8e8	0.0392541
177	0xbd5c24e4	-0.05374612
178	0xbcc09cec	-0.023512326
179	0xbd45daba	-0.048304297
180	0x3d604be4	0.054759875
181	0xbd5b9d2c	-0.053616688
182	0x3d094709	0.03351501
183	0xbd9ef1d3	-0.07760968
184	0xbcd710c0	-0.026253104
185	0x3c9d4466	0.019197654
186	0xbda01e8b	-0.078183256
187	0x3bed74a0	0.007246569
188	0xbd7b6b06	-0.061381362
189	0xbd1f1f76	-0.038848363
190	0xbd2e35ca	-0.042531766
191	0xbd035a86	-0.03206875
192	0xbd696970	-0.05698532
193	0x3d04768f	0.03233963
194	0xbd325e13	-0.043546747
195	0x3c8ce291	0.017197879
196	0x3d0e40ae	0.034729652
197	0x3c8264b3	0.015917158
198	0xbd601438	-0.054706782
199	0x3d281008	0.041030914
200	0x3b3d31fb	0.0028868902
201	0x3d5de1d6	0.054170452
202	0xbc9db698	-0.019252107
203	0x3d900b42	0.07033397
204	0xba8995c0	-0.00104969
205	0xbcb4c0cd	-0.02206459
206	0x3d34b0d0	0.044113934
207	0xbd917596	-0.07102506
208	0xbca6bd3f	-0.020353911
209	0xbdc9a17a	-0.09845252
210	0x3c9912ec	0.01868578
211	0xbc99deab	-0.018782934
212	0x3d159a75	0.036524255
213	0x3cee2b5d	0.029073412
214	0x3d527d8a	0.051389255
215	0xbd0c9186	-0.03431847
216	0xbd40da54	-0.047083214
217	0xbcf5745d	-0.029962713
218	0xbd6454e2	-0.055745013
219	0xbc368cff	-0.0111420145
220	0x3d5dcf84	0.05415298
221	0xbce356d6	-0.027751368
222	0xbd69f9cc	-0.05712299
223	0x3d318941	0.043343786
224	0x3d4c17d4	0.04982741
225	0xba50ed38	-0.00079699187
226	0x3c058b87	0.008150942
227	0x3d7a49d6	0.06110557
228	0xbd1eeaa2	-0.038797982
229	0xbd168452	-0.036747284
230	0xbc8931a8	-0.01674731
231	0x3c03b540	0.008038819
232	0xbd11f2ea	-0.03563205
233	0x3d5ebb1b	0.054377656
234	0xbd25eaf9	-0.04050729
235	0x3dc49591	0.0959884
236	0xbd328828	-0.04358688
237	0x3c9226f0	0.017840832
238	0x3c143bbb	0.009047444
239	0xbc4e117a	-0.012577409
240	0x3d009b5c	0.031398162
241	0xbd03fa18	-0.03222093
242	0xbd7e3856	-0.062065445
243	0xba971619	-0.0011526971
244	0xbce3e320	-0.027818263
245	0xbccb30bf	-0.024803517
246	0x3d46a87e	0.04850053
247	0xbb924545	-0.004463824
248	0xbd8408b4	-0.064469725
249	0x3c36ea44	0.011164252
250	0x3d4f3e74	0.05059667
251	0xbd8d7ffe	-0.06909178
252	0x3d5dc012	0.05413825
253	0x3ae41f00	0.0017404258
254	0xbd924f96	-0.07144086
255	0x3ca6ed6c	0.020376883

l3.bias f4 [3]
0	0xbc9261f2	-0.01786897
1	0xbd3075f2	-0.04308123
2	0xbdd4c901	-0.10389901
